examples/point/missing_point/revised_batch_pth/missing_point_1_epoch_249.pth (torch_old, 68816 bytes, 14 tensors)

layers.0.weight f8 [15, 5]
00000000: db70 3e49 9477 d1bf 1157 980f 5bb6 e73f
00000010: e8b0 c5de c314 c63f b021 d5da b69f c83f
00000020: a518 1b6b 087c d03f 33b8 ef48 49de c7bf
00000030: 4121 169d 7a71 e6bf 650c e1be a280 f33f
00000040: 6fb2 1aa4 97d9 ea3f 8af0 6a16 9e36 c83f
00000050: 122f 6202 c005 f6bf 9021 6507 aee1 d03f
00000060: e4c4 27eb 3c12 413f 21bf 80f8 5a31 d8bf
00000070: 22d9 605e e31f e2bf 1cef a1c4 8be7 ba3f
00000080: 6aba 614d 7963 da3f f121 761a f1e1 e7bf
00000090: 8d7e 2309 baf3 ebbf 3fce c88a 1e32 cf3f
000000a0: 5295 1f2c c6c2 db3f 88ad 8c8a 3b38 d5bf
000000b0: 852c b937 2602 d73f 6c53 2824 89e9 db3f
000000c0: d8fd 6588 cb29 bb3f 41c9 a0f8 ae8c e83f
000000d0: 78ac 2486 2365 d5bf 68a6 b260 4728 d33f
000000e0: 8f69 96ae 6b41 debf 72cf b0cb 1b8e ea3f
000000f0: d7de 0eb5 80af cabf 8e97 6328 16c8 c13f
00000100: 3d0f 631c 0d0b d93f 034c 9f02 c2fa edbf
00000110: 1f38 18e1 b944 c3bf 4c66 50d4 d7a8 bcbf
00000120: e88f 1521 628a e93f 677a 8678 885d f7bf
00000130: 1848 209d f436 e3bf 6c85 ffa4 506f e8bf
00000140: a42d 28fc 00a3 d23f f8a0 28c6 9126 c73f
00000150: 8032 c73d b8e3 ef3f c11f cc2d 9575 a43f
00000160: 5dcd bd77 c636 d23f 6125 6485 173e c6bf
00000170: 75b0 84c1 108d d53f 94cc 480a 7f6e e2bf
00000180: 4b77 6493 af67 fabf 33d0 30ab 019d ba3f
00000190: e293 0488 1e82 e53f df2c 7aa6 b752 f5bf
000001a0: ae11 1298 ebdd e33f 243b b629 8556 ed3f
000001b0: 4d00 bf0d afff f23f 5213 286f 74f0 e43f
000001c0: 8ef6 99f7 8549 a9bf b96e cfba f8e0 c4bf
000001d0: 3671 e222 e0c5 c1bf d4ed ca61 fe0c c23f
000001e0: e587 b13c db07 dabf d06d c0cb a551 d2bf
000001f0: dbae 89a7 045d e5bf 3120 a3ec cf23 00c0
00000200: a9e7 28f7 12da ebbf e823 30fd dd5b d8bf
00000210: fc12 d401 cd40 953f bb0e 4e9e 4370 e03f
00000220: bd08 1832 246c cbbf 0691 fce4 1404 ef3f
00000230: 2960 e279 a1f6 e8bf 3592 dac3 7f0a dd3f
00000240: fa00 50d4 718e c6bf 15b1 bf76 233a d5bf
00000250: aae8 e588 83a7 f2bf
-0.27292353775716344 0.7410102181044939 0.1725087011103661 0.19237409291441798 0.25757036647372394 -0.18647113858554717 -0.7013524120421054 1.2189052063193
0.8390615658914394 0.18916679472556935 -1.376403817473094 0.2637744018761845 0.0005209729627592388 -0.37801241176474504 -0.5663925975157194 0.10509561110114557
0.4123214011841926 -0.7463307873559285 -0.8735017946709874 0.24371701981145752 0.4337630682842547 -0.33155716448046535 0.3595061821149062 0.43612888842590425
0.10610649185218024 0.7671732765213976 -0.3342980203621617 0.2993334240260084 -0.47274295854153875 0.8298472383817013 -0.20848091927267973 0.13891865703697842
0.39129951259768686 -0.9368600894180193 -0.15053485384891105 -0.11195134099434617 0.798142494790679 -1.4603352268237815 -0.6004584378117697 -0.763588258993122
0.29119896530820655 0.18086454559057308 0.9965478140453143 0.039959585037706365 0.28459321683404487 -0.1737698937725254 0.33673495195649333 -0.5759883118502267
-1.6503139264600175 0.10395822934589276 0.6721336990927933 -1.3326946738259762 0.6208398790482101 0.9168115439113973 1.1874228035885779 0.6543523951555505
-0.04938906333425762 -0.16311558839412557 -0.13885118201586416 0.1410215356353165 -0.40672951628778115 -0.28623337648033687 -0.6676047584746486 -2.017486428001597
-0.870370371564822 -0.38060712552447606 0.02075500796947248 0.5137041179554765 -0.21423771329870603 0.9692482445139212 -0.7801062946846332 0.45376581312510506
-0.17622206560918824 -0.3316734943062028 -1.1658969256955438

layers.0.bias f8 [15]
00000000: e39d 0a16 c2b1 d23f 766c d494 192b d73f
00000010: 16c3 4dd2 7f2a c03f d6c2 bc52 4d6d ab3f
00000020: 7999 4699 adef c2bf dc2f 25a1 2033 d7bf
00000030: d734 a873 3830 e1bf b8be f1af 412d bdbf
00000040: 89bc 4245 e050 b23f 749e d4a4 56d5 b6bf
00000050: 5d3c d5e1 91b6 d43f 2b40 3563 fd41 d2bf
00000060: 6e7b f6c8 036e d4bf 7a4e 8bbe 51f2 c63f
00000070: 8455 7c30 b591 e3bf
0.29209949638831584 0.3620056107917614 0.12629697579134164 0.05356828341462509 -0.147939395753564 -0.3624955724415011 -0.5371362933089142 -0.11397181077495133
0.07154657069144056 -0.08919278644736456 0.3236431794547963 -0.28527769745142234 -0.31921476960444906 0.17926999858774534 -0.6115365931497512

layers.2.conv.kernel.weight f8 [1800]
00000000: ba8c bda9 a9b2 ef3f 49da 5a5a 1660 dabf
00000010: 35d7 f9bd 2e81 a2bf 57b7 1f73 4531 f3bf
00000020: c3e7 911d fd4c fbbf c77c 839a 5bc2 f7bf
00000030: 2cd4 bf0c 092b ee3f 465b a804 d921 e03f
00000040: 1000 e29e c507 be3f 4a9f 8588 b6a0 e63f
00000050: 6eed fcfa 52be fa3f 1f14 125a 4b48 ed3f
00000060: 44a3 e9fb 960e d0bf f169 3e87 b1be 0140
00000070: 4e93 5ed2 38bf f03f bae0 057c 8402 d2bf
00000080: b777 ecee 25e3 f1bf c221 af36 6ab7 00c0
00000090: 4e7d b99b ac85 bebf 65f0 4f98 d50d 9a3f
000000a0: 9d32 56d5 53c4 eebf e2c9 799e 336e c7bf
000000b0: 923f 255e 8432 f13f ce66 df73 c1af debf
000000c0: 228f 7e9d 6238 e1bf f959 2137 4f1d dcbf
000000d0: f5fa e786 a768 f53f 9781 bd4d 6098 00c0
000000e0: b257 3303 de40 90bf 7322 c09c 5250 f4bf
000000f0: 2fdd f4f6 1c92 f0bf e6d1 cfb9 baac e93f
00000100: f2ee 1744 4db9 c0bf 24c3 e466 05aa eabf
00000110: 6ed5 a32f 1897 fb3f 4bd2 daf1 6abe fabf
00000120: 0070 8fe2 dc0e f43f 8d24 5a74 e21a fa3f
00000130: d134 44d4 9ca7 ce3f 4d82 580b cf3f bf3f
00000140: 7e2f b597 2f3e d6bf 3aa0 344f 1f37 c43f
00000150: 801c baae 80a1 e63f 04ba 6d70 cbbb db3f
00000160: c29e f0d2 fa99 c83f d140 1f2e 5f6c d0bf
00000170: a084 e3c6 cacf f1bf eaf9 2ab0 2a96 f63f
00000180: 0642 3156 c9b9 e1bf c8a3 fdb0 6504 f13f
00000190: ab2f 1b69 30bb 00c0 86e1 4f37 7cc0 e7bf
000001a0: ba0f 81b7 664d 0040 17c4 6a38 751b efbf
000001b0: a545 cb16 085e e63f fdc0 6760 f9b3 0440
000001c0: 4cd0 b9e6 f1fa e93f 5bea 165f fee9 ec3f
000001d0: 21c5 970f 4430 e5bf 9ae3 c994 b154 ef3f
000001e0: 1aca 18b1 1198 01c0 c8e5 ba84 5c05 d63f
000001f0: 782c 9696 1b0a f33f cb98 eb2e 6586 dd3f
00000200: 3649 dc3a 0cff f4bf 5290 2d73 b792 eebf
00000210: f15e b6ba c828 c33f 420d 6358 e9f8 c0bf
00000220: 3173 2eb2 6dfd de3f ebc1 126b a81c bfbf
00000230: d4e5 59db fc11 e83f 67f8 48ea 5589 b6bf
00000240: a8ed 2cb2 1122 c9bf 83c9 7eaf 5eca 01c0
00000250: 3447 e91c 2e1b d93f abd2 5575 e607 00c0
00000260: d5b2 4ac9 91b0 d9bf ba42 ff04 44cb fdbf
00000270: ab30 75b3 f1ad a43f 65b0 dfc7 b460 cd3f
00000280: aa86 3921 28bd e93f 9754 9ae2 e012 e83f
00000290: ef5d d92c 3697 03c0 7f05 d68e 2d9d a13f
000002a0: bb2b d791 30de fe3f 11dd 08bd 31a3 e03f
000002b0: 8601 7d5a 65e2 b5bf 8091 9fe0 4c31 d4bf
000002c0: bf95 a23c 76ba f6bf 8b9c a4b5 883d fb3f
000002d0: f3cf 0eff 2225 d8bf 349b e481 2af9 d73f
000002e0: 5399 9c84 eb77 f13f eca7 0d0b be48 d5bf
000002f0: 3c33 c28d 47aa dbbf 1c9b 5d4d 141d f03f
00000300: b37d b3b7 da08 eb3f 6c15 2713 4bf9 f3bf
00000310: fe17 29ec f72f f5bf 9635 6ba4 61b0 b2bf
00000320: 6431 d1fe a867 febf 2740 a41e 9f22 dbbf
00000330: 1301 e40d e421 fbbf f208 c04d 6034 0240
00000340: d3de 2bee 8d9b f23f 4db1 c77a f991 e53f
00000350: 853c ec3e 6d06 d3bf e1f1 c3aa 4c7d d3bf
00000360: f21f 51dd fbc9 f73f 4407 b2d9 cd5d f53f
00000370: 8c01 99b5 62d3 ecbf a771 5fdf 9ffa f8bf
00000380: 6fe8 0b4a 9430 d53f ecc6 4db0 9a52 e8bf
00000390: 2749 d8ec 402a e13f e1f7 fbb7 2ab2 e2bf
000003a0: 7d2e 28d9 b38f fe3f 5ba7 d9fd c82b f53f
000003b0: 3062 019c f292 f1bf 765b 9196 af0b dc3f
000003c0: 811c 8387 1cfa 01c0 a8b9 2923 0ec9 f0bf
000003d0: 05c1 25eb a825 92bf 938e aa01 75e3 fd3f
000003e0: a966 45f6 4695 f1bf 0ce6 c0d9 9c72 f2bf
000003f0: 9b20 78f1 29d4 c63f dd1d 7d8e 8a17 f33f
00000400: 763f 8e35 c96e dabf a050 4cfd 7a49 cbbf
00000410: fc67 bb27 1fd6 e93f bf25 29a9 e651 00c0
00000420: 3dce b8ee 9538 eebf d57b 03e9 3b44 e63f
00000430: 39d1 79f8 9121 cdbf 7a32 d652 a4dc debf
00000440: bebc 890a 1dc5 fabf d833 c823 717b c0bf
00000450: e269 40d0 c472 ea3f 1891 73b4 67bc f1bf
00000460: 1e93 7c7e bd4d f23f 39fb 0324 b871 fe3f
00000470: f0a2 49d1 486c db3f 9521 28c2 71d2 e3bf
00000480: 76db 9e2f ed58 f03f d6f5 1f96 3e27 e53f
00000490: 23af 6c9d 360c d3bf aa22 05db bb5f fa3f
000004a0: 6a8f 8b53 193d e5bf 55f5 c492 72cf 0140
000004b0: 6230 53ce 47f9 d33f cae5 aa2a 232a e3bf
000004c0: 83e6 a821 7c9a e33f 5ff1 0532 0f2d d03f
000004d0: 832f 165f a38b c6bf ff4b 71ff 5ca5 e0bf
000004e0: 1a80 0695 e775 e83f 94df 1020 f263 fabf
000004f0: 8d0b 2d59 e100 e4bf be4e 80bf 42d8 d0bf
00000500: 92cd 708f f32d e5bf c7e2 f24d 1c2c e83f
00000510: 0da4 3028 093f e8bf 8bb5 46d0 1f1e e83f
00000520: 3fe4 fa6b cde7 dabf 7746 c83b 9199 d9bf
00000530: 1d9f 1093 a01d ee3f 8dfa fd86 c37c dbbf
00000540: 4108 bd71 d4f5 0040 51ee dcf6 512b fd3f
00000550: 1bb7 3253 3a6b ee3f 7bc0 19d8 c679 e23f
00000560: f3c0 4f6a 2692 ad3f 85a2 71e9 c96d febf
00000570: 4dc4 b359 9826 f5bf 1329 8dea 9dc7 cd3f
00000580: a8b5 18b8 abe6 03c0 efef e5f0 a048 f73f
00000590: 6e87 d066 c089 e63f 5801 c1d7 e26f e23f
000005a0: 03b4 00b2 694a 02c0 d80e 0569 4a81 bfbf
000005b0: d954 09a2 161a fa3f 303b dd27 deba f63f
000005c0: dbef 0cae 2660 c13f 991b ac6c 0d0c 01c0
000005d0: 6176 f97a 699e f53f 1d97 a0d2 1fe7 0540
000005e0: ce26 f789 57f7 f4bf 373a ab5d 1f6a f03f
000005f0: 517d 9d8f 8315 df3f 8d55 e8f4 aa1c d33f
00000600: 4463 a9d4 ea7c e4bf 96e1 dc11 0fc2 f0bf
00000610: 3965 0200 eaa7 a4bf 1a99 746f 3411 cc3f
00000620: fd9b 9e73 72c2 fb3f 081f 57d7 2327 dabf
00000630: 17f9 61c1 6455 d2bf 945b fa30 3208 db3f
00000640: c3b7 fd08 6b47 f73f 0b99 a30c 68d9 eebf
00000650: 47a5 2d1f 353a ebbf 9b0d 8d56 d2e0 e63f
00000660: 77b1 c8c5 7e24 ee3f 243b ece8 5587 e13f
00000670: 0a00 53d7 f1ec e3bf ef6f 48a5 5b3d d2bf
00000680: 8a4f 66c8 92f6 a8bf 799b 5099 2101 f6bf
00000690: 4920 65f8 b939 fb3f 97cd e428 2b01 f23f
000006a0: a4f3 ca6f 0a60 02c0 d22b 624f fd07 fc3f
000006b0: 5af5 ce38 085b e73f dc51 4009 8868 fa3f
000006c0: e11a 8b58 78eb e93f 8972 9e51 dab8 b7bf
000006d0: 7f59 3bb6 d1c0 edbf cd64 e1c8 549d f3bf
000006e0: 5d14 4365 5014 c5bf 8f22 a55a 71ce e63f
000006f0: 6812 12fb f859 bcbf b09f 29fc 53df f4bf
00000700: 6152 e31a 8e99 cc3f fbe8 c829 870d fb3f
00000710: 2e15 7a9e 0d4d f2bf 80ea 6160 0403 dabf
00000720: f2ef c753 426a cebf 8222 0f8b 40a3 ec3f
00000730: 005c 4fe8 751f ef3f 498e 1bb2 ad06 cbbf
00000740: d57c 2357 1df2 02c0 eb54 0251 8dc2 e4bf
00000750: 1bc4 ddee 17f1 f0bf 8772 4749 b3c6 f33f
00000760: 1586 3ca5 4f6f c43f 19cb f596 df52 ff3f
00000770: ff57 16a8 96e0 d5bf 353a 0166 07f3 e13f
00000780: 8ebc 86ee d7ca 02c0 1096 d85a 8695 f13f
00000790: 846d c842 f443 ea3f dd76 2e60 6774 b0bf
000007a0: 7c0b 1c13 d315 ed3f 3884 6f99 3f09 eabf
000007b0: abb7 d494 f079 f1bf ed37 9a9a 805f ec3f
000007c0: d9f8 8f48 d5f6 d13f db14 b057 cc4f e5bf
000007d0: f8de c347 565a f0bf f6d7 8bf4 0f27 e5bf
000007e0: d1fa a422 fd9d e53f 5083 8f20 dd30 e13f
000007f0: 21f0 9698 c991 cc3f f7be 78e4 a3da ce3f
0.9905594172709222 -0.41211470435829206 -0.036141834917471284 -1.1995291230227474 -1.7062960772586713 -1.4849506412208926 0.9427533387194038 0.5041318026513657
0.11730609063124597 0.7071182886547629 1.6714658550470989 0.9150749930564678 -0.25089048958630067 2.21811204585287 1.0466850488239348 -0.2814036570703241
-1.117956097884855 -2.0895580551334385 -0.11922720720166533 0.025443398877527907 -0.9614657561047185 -0.18305058706353267 1.074833266979088 -0.4794772750443429
-0.5381329608976311 -0.4392889059430725 1.3380503911754975 -2.0744024346788126 -0.015872448869081963 -1.2696100352351578 -1.035672154115513 0.8023351315628673
-0.1306549627769225 -0.8332545289650608 1.724388300031332 -1.6714887092067723 1.2536286211025072 1.6315636200909325 0.2394901310403044 0.12206739451404154
-0.3475455266495756 0.1579321991678187 0.7072146809231441 0.4333370778976191 0.19219909000206853 -0.2566144895945515 -1.1132304925052168 1.411661804347768
-0.5539290126271801 1.063573542947994 -2.0914009295865603 -0.7422467308343108 2.037793573022978 -0.9721017934699628 0.6989784665294577 2.5878779918349424
0.8118829256404836 0.9035636765687046 -0.6621418289707074 0.9790885835674203 -2.1992524944009917 0.34407723390503664 1.1899677164354028 0.46132783491192403
-1.312267522739217 -0.9554097413606633 0.14968213192764027 -0.13259617629783277 0.48421804810077435 -0.12153103460401098 0.7521957668497472 -0.08803307504510514
-0.1963522071836057 -2.2238134108130807 0.3922839433990817 -2.0038575331512525 -0.401401945661559 -1.8621254153442082 0.04038958850523618 0.2295137382456033
0.804340424434675 0.7523044992291429 -2.4488337997279284 0.03440229767421509 1.9292455384154283 0.5199211780626759 -0.0854857774656975 -0.31550905166502474
-1.4205229157026762 1.7025229545049878 -0.3772666445540828 0.37458288845884913 1.0917773418564891 -0.33256484107425766 -0.4322680363045952 1.0070994398208262
0.8448308551705196 -1.2483626125479885 -1.324211046697655 -0.07300386680727508 -1.9003076509280499 -0.42398813240379457 -1.6957741301158122 2.2755743097524084
1.1629771522111028 0.6740691564605555 -0.29726725716404473 -0.3045226733809426 1.486812462348095 1.335401392338512 -0.9008039042310414 -1.5611876225949375
0.3310900424108984 -0.760083526938812 0.5364079118610662 -0.5842488854830173 1.9100836260503506 1.3231897274040054 -1.09837590159999 0.43821325019728563
-2.2471247279059416 -1.049085748057772 -0.017721785881293268 1.8680315079772398 -1.0989446277584796 -1.1529816156383985 0.17834972658625223 1.1932473722425734
-0.4130118391994907 -0.21317994468757195 0.8073879028336246 -2.039990731781216 -0.9444074308907556 0.6958293486640011 -0.22758698113069345 -0.48221691216966855
-1.67312339893742 -0.12876714942140555 0.8265098636068695 -1.1084973381885614 1.1439795437701785 1.9027635008676056 0.42848415792700134 -0.6194390098690287
1.0217105732133098 0.6610405857206227 -0.29762044309130625 1.6483725123854733 -0.6637083656064366 2.2262927500111496 0.3120898737804564 -0.5988937219000772
0.6126080186288195 0.25275020489768524 -0.17613641875174943 -0.5201859463799109 0.7643926535274688 -1.6494008305143995 -0.6251074544637604 -0.26319950772561274
-0.6618593026709496 0.7553845903813333 -0.7576947960816384 0.7536772792715721 -0.4203980974667196 -0.39999800527684876 0.941116606937587 -0.429489976719119
2.120034111577326 1.8230762141310104 0.9505893349612252 0.577365324088546 0.05775566146610513 -1.9018038863088418 -1.3219226364128815 0.23265432312684506
-2.4876322157421846 1.4552316103063239 0.7043153770539285 0.576157971758259 -2.2863344103302565 -0.12306656898459367 1.6313692407177796 1.4206220204539015
0.13574679850159907 -2.1308849802039274 1.351174812668795 2.737853665853335 -1.310386218001827 1.025908819097493 0.485688104867184 0.2986247436213823
-0.6402486947582493 -1.0473776529089256 -0.04034358263124677 0.21927504961167515 1.7349724308385241 -0.40863891629531723 -0.2864620102408408 0.42237524779323476
1.454936061021258 -0.9640388724190257 -0.8508554085685 0.7149440470170022 0.9419549811332634 0.5477704571984288 -0.6226739125777396 -0.2849949945536982
-0.04875620552334599 -1.3752761830198479 1.7015933707171078 1.1252853009617405 -2.296894906407447 1.751950559703563 0.7298623189487146 1.6505203591706197
0.8099939088213796 -0.09266438000345024 -0.9297874983993067 -1.2259109351055486 -0.16468243545947106 0.7127005358134556 -0.11074787263539465 -1.3045234537221226
0.2234361296929306 1.6908027298182435 -1.143811816263518 -0.40643414890624996 -0.237617770107931 0.8949282375334209 0.9725904023460998 -0.21114131161367514
-2.3682200248436893 -0.6487490255555292 -1.058860714980489 1.2360108244385246 0.159646945649954 1.9577327629928674 -0.3418327943303438 0.5609166137963429
-2.3490446696155862 1.099005083911269 0.8207951835969856 -0.0642761812036627 0.9089141247971919 -0.8136289593495638 -1.092270451899348 0.88665800281319
0.2806904991738413 -0.6659909927990627 -1.02205493958712 -0.6610183502477855 0.6755357433938461 0.5372148166608017 0.223199080950395 0.2410473695358559

layers.2.conv.kernel.radii f8 [4]
00000000: 0000 0000 0000 0000 abaa aaaa aaaa ea3f
00000010: abaa aaaa aaaa fa3f 0000 0000 0000 0440
0.0 0.8333333333333334 1.6666666666666667 2.5

layers.2.act.bias f8 [15]
00000000: c0a8 96fb ad56 803f 78ce 24b1 a8d4 e63f
00000010: 3617 1f00 1d34 f53f 06e7 7ef9 04c9 0040
00000020: 72e3 33ba 2747 f83f 6c77 225a 39a3 fe3f
00000030: b012 423b e2e8 0140 fc3b 9d1d 649a f53f
00000040: 2db8 2717 e91e 0240 61b2 e944 a311 f13f
00000050: d257 3fd7 35e6 fa3f 1d82 8820 adbb fc3f
00000060: 1c69 a318 6d90 f53f 36aa f40c a0ec fa3f
00000070: 681e 5586 8446 0040
0.007977828255054553 0.7134593448485722 1.3252229695076045 2.098154019532447 1.5173718713324118 1.9148496170887155 2.238712752298248 1.3501931340031197
2.265093022250787 1.0668060962590504 1.6812036903479464 1.7958194037274844 1.3477602922853924 1.6827698236544513 2.0344324583746136

layers.3.conv.kernel.weight f8 [5400]
00000000: 1d1c 1911 ffb2 d83f 7c0f 44d4 2116 f63f
00000010: eeb4 61d5 d7c3 f4bf 4476 b7ca f7b3 dcbf
00000020: 0ded ac53 45fc f8bf 31ab fef8 d3d0 e5bf
00000030: f415 48cd e8b6 f7bf 0d7b a344 e223 06c0
00000040: d42a aba2 14ef e13f 11ce 12e2 7bb8 d13f
00000050: 905d 0c62 a4fb ea3f 72de 095f 13a2 f8bf
00000060: 9d40 766c f55f 07c0 8fff 90f3 ba4b 0ac0
00000070: b98c c884 2d47 00c0 0253 0d39 4d67 c1bf
00000080: b505 28d7 eb26 f33f a8ad e2fd c49c 01c0
00000090: 275e b8d2 8563 e9bf f7eb 2b74 89bd d53f
000000a0: 2aa6 f2a6 465d 13c0 bb21 6d0f 9e26 ffbf
000000b0: 2c5e bd84 711e f73f 8742 d487 df77 f0bf
000000c0: 4c6a b5e0 0c15 fcbf 39c6 c785 f9c6 fabf
000000d0: 35da 93c8 6e62 cd3f 2301 82de 180c c4bf
000000e0: e722 1e74 10cf 03c0 08c5 533a dd9c d33f
000000f0: 322e 413d 1e7d c7bf 1ef9 f24f 05d4 bbbf
00000100: 6c50 b087 f968 1c40 8146 d294 891d 0140
00000110: 4b9b 3d53 d982 ea3f 2760 4cd3 b039 f2bf
00000120: b5dd 0d08 f503 f53f a3f1 0ca6 f89e c23f
00000130: 7e3e 7304 f7f5 eebf 9b08 84c2 e882 dc3f
00000140: 027e d9ed d2ba d7bf 0593 b77e 6c60 fa3f
00000150: a2d9 328b 63c4 f13f 89b8 dd93 6407 c0bf
00000160: 67d5 a37f 0fd8 ff3f 8707 c3df 1998 0240
00000170: d697 def0 705c fc3f 1072 0459 0fc4 f03f
00000180: b5f4 928e a343 03c0 cf57 7a7b 6100 0340
00000190: 5de8 d515 70bd ea3f 43be ef8c a772 e53f
000001a0: 9f16 63c2 7867 04c0 65fa 26d1 8085 fdbf
000001b0: e862 a831 2c41 e8bf 059a 9fe2 e781 e33f
000001c0: 4cca 9632 a372 0540 101a 1511 fea4 f33f
000001d0: ffb3 17e1 5f7e e5bf 7231 92bb 3cf1 f73f
000001e0: 3ab7 a5f2 984c ffbf 3bbf 1f86 d52f f53f
000001f0: 8e53 8450 e3b7 f13f b9d3 18c6 7030 a53f
00000200: 974e fbe4 67cd 0a40 5a8b 383f 08b1 0040
00000210: e850 80bd 720b e5bf e8b8 e14a 5506 0cc0
00000220: a6a4 51c6 4f6b fe3f 8a8d 8343 2b93 ec3f
00000230: 2d59 59f3 7945 d03f 7a8d 6e3c c242 f6bf
00000240: cf0a 5f6d 1915 0b40 250e 5ce0 5a44 0b40
00000250: b7ca b92f edff d8bf e388 b66f 2749 cf3f
00000260: 21d5 0482 9d7a 0640 5b3d fb5b 1f65 dbbf
00000270: 4722 8715 0c97 dabf 68ba 9b94 f4a5 f4bf
00000280: ea33 edb9 784b 0540 2e4f e0f4 b89f 98bf
00000290: 7727 f71d 9866 e7bf b88b a3ce c79c f5bf
000002a0: 2a92 cee0 a3aa fe3f f3de 46bf 1e4d e73f
000002b0: 00cb 3ea7 17b2 ecbf 5774 e38a 8c81 e33f
000002c0: 7f3a 4038 b263 f23f c304 ae60 eeb1 f63f
000002d0: d464 3506 a3ba dc3f b7de fbe5 3826 d53f
000002e0: 692e 50e9 6447 08c0 2eb2 5afb d02a fabf
000002f0: 5fca 2b31 05de f5bf 512a c3f2 b7c8 e7bf
00000300: 490d cbe5 1f98 f0bf 8a72 2fa9 4bac ee3f
00000310: 2466 1720 7bb4 f2bf ef76 4ae5 604d f6bf
00000320: bd15 c861 ef63 fabf dda1 8315 18d5 edbf
00000330: 90c1 a503 e93c f73f f9bd 03c3 5c63 e43f
00000340: e184 334b b26f 00c0 6b69 bea1 82b1 f6bf
00000350: f2b8 716b 6a20 0240 0602 ac4d a505 b9bf
00000360: 3625 a09f 38da ec3f f917 9f8c f532 debf
00000370: 50a0 27c0 6c7d e73f f2ca 35bf ed3c f2bf
00000380: cc92 437f 3929 eb3f 1937 0162 6a8e f2bf
00000390: 215b fab7 5101 ed3f 5260 a558 cd23 dfbf
000003a0: 1b1d b415 2075 f33f e20f 584f b9ee dd3f
000003b0: 27e8 0da3 7d92 e4bf 78b6 140b ba65 f8bf
000003c0: 78bf b0b1 ac5f f7bf 7585 ab3d 70f8 f9bf
000003d0: 80bc 12f8 dd69 f33f ab08 3714 62fa debf
000003e0: 2711 d530 98c5 0240 6814 b79f 256c f83f
000003f0: e666 8814 1999 ecbf cb1a 2622 7f85 eabf
00000400: 47da 97d7 9a5e c83f 4b4f a48b 6852 d43f
00000410: dd16 23b8 a3cb f8bf 57b9 eb2c c041 d63f
00000420: 1162 4f33 3e6e d83f e95a 9757 5ac5 e43f
00000430: 7bbf 5201 6277 e33f 36d4 1c71 8b22 efbf
00000440: f548 93bc 7ac3 0240 8ae5 0f6f 9fe2 ca3f
00000450: 664e eddf 7f02 d43f 2178 5c36 e208 e6bf
00000460: 7578 9fed b81d d93f e8ec de6a 6474 f6bf
00000470: 2e21 96f0 e5e9 cf3f 9042 45b4 6cb3 a7bf
00000480: d4c0 e9c8 85b3 ff3f 3af5 d737 cab6 f73f
00000490: 8d4b 54cf ed46 b2bf 6572 91f6 1f1d a8bf
000004a0: b8c3 3ea4 d0ef d63f 36d4 da39 42e0 f43f
000004b0: 9aa2 821d a07b b3bf 2f54 7f0e 8edc e7bf
000004c0: 0c12 9ec6 fa25 f03f d09c 66be 2b39 f43f
000004d0: dc95 1b87 8912 e5bf 78b5 19d8 a8d2 ce3f
000004e0: 3949 a9cf 1262 e5bf ebbc c3a0 a99f e8bf
000004f0: 8287 9f8f e7fa f93f 8c86 e590 739c eabf
00000500: 2ba3 b3b4 784a e83f 0614 e554 4fca 01c0
00000510: 31ad b161 b7da adbf c35d de3c d9c4 e03f
00000520: eafc 66e1 8de2 ecbf 76d1 ba56 4355 fcbf
00000530: 2a35 3fa3 9e1d e43f 8ca5 a82d eeec ee3f
00000540: e55f 83e1 a81e eabf dda5 3a1f dc5e f83f
00000550: d3a0 73f1 abad ef3f b91c 6825 21a0 c83f
00000560: 3db8 8189 dd18 ec3f 56db 0826 0ce5 f13f
00000570: 5d96 0a42 b833 efbf 89fc 5697 8bb7 e0bf
00000580: f956 3b62 9041 f13f 3b0d 6f4b 669a f13f
00000590: 4273 7530 b1ed f6bf 7b53 55d7 a104 dbbf
000005a0: e1e6 5244 a091 f1bf d7ef 2508 d7a1 d2bf
000005b0: 239a 93bc 4022 f9bf 767e 4112 52c4 f8bf
000005c0: 671b 6b3b f748 05c0 a954 592d 23fb 02c0
000005d0: 90e4 9e6f 3042 ddbf 5474 e880 ea00 f53f
000005e0: bcba ff9b acfb ccbf 0654 af14 d04a e83f
000005f0: c371 5060 1cd4 eb3f 9f52 958a d0bf e63f
00000600: 0915 9f77 e8fb f1bf 993f 56ca 711c eabf
00000610: 6701 e6c4 fbf6 f33f 0987 00d9 f190 f43f
00000620: 8eb0 d58a ab3d eabf 59d9 3f49 e972 f0bf
00000630: 8616 f046 2997 d43f 2f8f fc28 c185 ec3f
00000640: 8eab 385a b588 d53f 0ec0 7a63 ffc1 d3bf
00000650: 2716 91d7 5201 ec3f e6ef 43c0 0890 963f
00000660: f54e 06e9 99cd e3bf 87d0 d759 1a38 f2bf
00000670: dda8 6d6f b8ef ef3f e8d3 4917 7079 e1bf
00000680: 4c9c f8a3 16cd e8bf df61 8ac4 c4f7 f4bf
00000690: 21ad 7cd0 2eb0 e4bf 06c7 97d7 0bd5 ff3f
000006a0: 7861 66a8 b622 ecbf 1ec3 5e7f 6bef fcbf
000006b0: a858 6379 7ed6 be3f 79b1 8c4e 03c6 bd3f
000006c0: 4df4 abf5 547a e53f dfa5 18d2 cd39 8ebf
000006d0: 89d5 032d b7f8 f03f 0db7 0a56 ae62 e6bf
000006e0: 587d 0b83 a93a e73f bddd 9d45 d26e b03f
000006f0: b747 f443 da0d f3bf b075 3148 16db e33f
00000700: c722 fc73 8271 d9bf 5112 871a b6d6 f93f
00000710: ed14 2678 49d2 f3bf c52e 0794 e5c3 b8bf
00000720: aa44 eb72 c6e7 e3bf c55e e2b4 1292 e03f
00000730: bc48 9369 b920 0440 5abb 5545 5c96 ea3f
00000740: 755c c467 9e0f ffbf 07a7 fed7 e895 06c0
00000750: 86c8 b0fb c0dc c13f 3e74 4f7d 98d7 f43f
00000760: 2c12 9dae 4dff fcbf deb4 3579 ffb5 e9bf
00000770: 7c6e bfd2 a726 a2bf c218 4e85 9e7e e3bf
00000780: 9ff8 b6f3 7c0d 05c0 8ebb 64f7 0e88 963f
00000790: dec4 fca8 a39d c9bf 17c8 ea8e 68fd b23f
000007a0: 392d 7ee4 16f3 0240 a791 a3cc 62cb ed3f
000007b0: 0340 c9ee 092a aabf d683 0942 125a ff3f
000007c0: e544 2c21 ed2d e5bf 1de9 7bf6 778b e23f
000007d0: ba16 0448 9069 e9bf a09b df8e c875 f4bf
000007e0: a49e 58a0 d2c8 e63f 9bdb 900d 3d52 ce3f
000007f0: 3ec8 8c67 65ea f93f 0ecf 66ef f8fc ec3f
0.38592507047400365 1.380403355754395 -1.2978132567616814 -0.44848437115237894 -1.561589552743331 -0.6817417014293367 -1.4821556109249032 -2.76752141593841
0.5604346444245842 0.27688500478254335 0.8432180323606406 -1.5395692551082019 -2.921854827269341 -3.2869776753067934 -2.0347547887518798 -0.13596501622910045
1.1970022587341707 -2.2015476069261304 -0.7933987727764745 0.3396934160697919 -4.841089829025387 -1.9469280817594228 1.4449324784417383 -1.0292659097505366
-1.7551392343217627 -1.6735778070254936 0.22956642907929994 -0.1566191755737317 -2.476105601472557 0.306449229202443 -0.1835058020682126 -0.10870392991907749
7.102514381538736 2.1394225718184434 0.8284727693361246 -1.1390846494523517 1.3134661020866194 0.1454764185708771 -0.967525013629668 0.44549006457976653
-0.3707778284787936 1.648540968884107 1.1104464948126425 -0.12522561283134717 1.9902491556107067 2.324268100871396 1.7725686463322652 1.047866199230274
-2.4080268038365724 2.3751859327994462 0.83562473549615 0.6702459099451022 -2.5505232988824242 -1.8450935525903784 -0.7579556436422452 0.6096076418151034
2.6809753372447513 1.227781359413374 -0.6716765781726507 1.4963958098406605 -1.9562005499278272 1.324178241655274 1.1073945183936504 0.041385196859131175
3.350295819205552 2.086441511071297 -0.6576474858470904 -3.5030923700461365 1.9011991259415395 0.892964965689701 0.2542405010657543 -1.3912985191935534
3.385302404845198 3.4083764579861673 -0.3906205144950649 0.24441998438584908 2.8098707349514744 -0.42804702742156103 -0.41546918966608753 -1.2905164532673101
2.6618513608468577 -0.024046792932565335 -0.7312737069380394 -1.3507764884786706 1.916660192634604 0.7281640754581232 -0.8967397943982576 0.609564086214628
1.1493398854542247 1.4184402252724773 0.44889140707307473 0.3304579015670969 -3.034860441932143 -1.6354532068754781 -1.3667041702980425 -0.7432517758800917
-1.037139794950081 0.9585321716691209 -1.1690627339907076 -1.3938912350344557 -1.6493982143013988 -0.9322624607275959 1.4523706572036623 0.637129193199086
-2.0545392870995873 -1.418337470828727 2.2658279794769607 -0.09774239679610028 0.9016383283316489 -0.47186030132831963 0.7340606453917733 -1.139875170626223
0.8487822995781129 -1.1597694233236722 0.9064110368079562 -0.4865601888354877 1.2160950515552205 0.467695548519485 -0.6428821739821203 -1.5248356278274553
-1.4608580533058255 -1.6231539162621094 1.2133464517935693 -0.48403217290991546 2.346481687071122 1.526403068435025 -0.8936887169868128 -0.8287959734887748
0.19038711096773595 0.3175298083963198 -1.5497166817526058 0.34776310335918964 0.38172869692564954 0.6490909300581197 0.6083230996937198 -0.9729668816786503
2.3454489452789127 0.21004097865060728 0.3126525580202951 -0.6885844289533943 0.3924391098534053 -1.403416078056404 0.24932550666222525 -0.046290776258165356
1.981328759018699 1.4821264439954818 -0.07139478980779597 -0.04709720501771101 0.3583871463734414 1.3047506580308101 -0.07610512466875222 -0.7456732066299362
1.009272361611809 1.2639577329189713 -0.6585128439734791 0.24080381919649674 -0.6682218604931115 -0.7694900646146413 1.6237559900550598 -0.8315980749141132
0.7590907601671452 -2.223784125557816 -0.058309298205893596 0.5240293682899665 -0.9026555445088011 -1.7708161723977276 0.6286156834045518 0.9664221660397501
-0.8162426380686126 1.523159143437048 0.9899501529553397 0.1923867638254018 0.8780353246381832 1.1184197889067113 -0.9750634469862224 -0.5224054294448176
1.0785068356685186 1.1001952120430605 -1.433030309002064 -0.4221577265610034 -1.0980532330417463 -0.291127927739351 -1.5708625189087193 -1.5479298318022336
-2.660627807813785 -2.372625688828141 -0.4571648683591514 1.312723640009854 -0.2264304887498464 0.7591324237824899 0.8696424370896739 0.7109148699479028
-1.124000994940902 -0.815972228230737 1.2477986995073367 1.2853868939059245 -0.8200280868163803 -1.0280545102410399 0.3217261498215084 0.89132745747745
0.33646901903801385 -0.30871567454141846 0.8751615724838232 0.022033821806857555 -0.6188478041899247 -1.1386970052235783 0.9980127502760997 -0.5460739569522248
-0.7750352099000195 -1.3104903867116418 -0.6465066978466077 1.989513246688547 -0.879237488657096 -1.8084521270176945 0.12046041930747953 0.1163026873370593
0.6711830900454828 -0.014758689855699223 1.0607215650937596 -0.6995460205559724 0.7259109076948489 0.06419099998117068 -1.1908819822751704 0.620494023325298
-0.39755307509089416 1.6149197612986834 -1.2388395970640957 -0.09673914779630895 -0.6220428699981728 0.5178311856170345 2.515978646094565 0.8308545450398512
-1.9413131764793239 -2.8231980204190026 0.1395493725736438 1.30263565968859 -1.8123299427835589 -0.8034665458086712 -0.03545116851429683 -0.6092064479460293
-2.631585983296716 0.02200339684457791 -0.2001232695707022 0.07417920579135316 2.368696007824522 0.9310773846487351 -0.05110198058957851 1.9594900683953163
-0.6618562362583843 0.5795249761716011 -0.7941361815034818 -1.278755720233427 0.7120144969712396 0.2368847194900042 1.6197256131095084 0.9058804202854576

layers.3.conv.kernel.radii f8 [4]
00000000: 0000 0000 0000 0000 abaa aaaa aaaa ea3f
00000010: abaa aaaa aaaa fa3f 0000 0000 0000 0440
0.0 0.8333333333333334 1.6666666666666667 2.5

layers.3.act.bias f8 [15]
00000000: bc92 e73b 7478 fe3f ea2a e13f e9c7 f13f
00000010: fac0 f23f 9f39 f73f e639 9482 c41e d63f
00000020: 3c4f 745b 91be ef3f b0dd f679 bba1 d7bf
00000030: b3fb d498 9a0a ed3f 8fd9 7121 9cc0 d13f
00000040: b9c0 9184 94b5 f73f efbf 5594 1805 f5bf
00000050: 3794 1dda 339f ef3f 6b71 4898 b070 f13f
00000060: 29c5 6c86 6a62 e4bf 906b 88a2 8719 e93f
00000070: 8389 2ddf b0f2 d6bf
1.904407724382664 1.1113064284606318 1.4515678880671303 0.34562790634018226 0.9920126711099111 -0.3692463580186667 0.9075444207190827 0.2773809744461681
1.4818310907831302 -1.3137441438993809 0.9881839046544262 1.0900121639779978 -0.6370136857496266 0.7843664335699589 -0.3585626773330192

layers.4.kernel.weight f8 [120]
00000000: 31ca ff2b 8332 11c0 1c4d 258f 1cf0 14c0
00000010: acd4 bba3 f842 0cc0 c2cc b024 b3f8 f23f
00000020: f39f 2cc6 bcbe 1c40 d29e cfe5 fd6f 0040
00000030: d44f dac5 92f4 a9bf 4587 d436 bfab f9bf
00000040: 9da9 78ea 7ba8 1540 493e bc03 8b0c 1340
00000050: 4771 45a4 a9d2 f23f 32c2 2f6b 169e 00c0
00000060: 7da9 594b 3520 fcbf e561 9d19 5260 d4bf
00000070: 4abe 7ffc 28cf ecbf 8a12 0dcd 2cbe 04c0
00000080: 3a9b 7c25 ae32 f13f 4b30 73a4 6382 d0bf
00000090: f79c 69fa f9e4 f7bf 1ac2 402d 381a 0cc0
000000a0: 8b9b db81 fd76 e2bf 72bc 4a88 eec9 dd3f
000000b0: c3cc 0f1f 1036 04c0 cc55 71fb 9743 00c0
000000c0: 8309 3659 42ce 0c40 7791 d045 ef34 0d40
000000d0: 26fd ad33 4947 e5bf 126c 9bac 0075 01c0
000000e0: 105c 2d2c b18b f6bf 4ba8 b203 b598 eabf
000000f0: 5eff 5262 92e2 d73f f447 db2f 8f30 e73f
00000100: 1ca2 cca4 9b39 cfbf 818d 42fb ac51 f2bf
00000110: e38c eb7a 588c 06c0 e666 10e9 fb22 f7bf
00000120: 3044 08be 5f9a f7bf 8842 8f7d 87d6 f6bf
00000130: 3cff fcd1 7d28 06c0 25eb 1b6d 4bb0 eabf
00000140: 3ffb 53e3 4805 a83f 8ea4 21f3 f8ad e4bf
00000150: 290f f029 4202 ddbf 01a8 5123 4096 f4bf
00000160: ba5d 017a 59ff 1b40 17c7 577a 4086 f53f
00000170: af75 ced3 ebcd f4bf f59d d3ad a477 f1bf
00000180: ac8e 2743 d072 1540 77cf 7664 8242 0540
00000190: 074a 03d0 ced6 fabf 3fc5 eea5 d9ef edbf
000001a0: 2ea8 d3d0 1341 0840 616f 9702 061a 0940
000001b0: 4202 d23c f57e 0e40 a44a 4bbd 0a40 fd3f
000001c0: b844 d303 caf4 0040 ee10 2dcc b768 ff3f
000001d0: f708 a237 c902 d0bf 1bd5 eabf edaa dd3f
000001e0: e5e8 6ac2 6953 10c0 47f7 4799 8724 07c0
000001f0: 84bc 7914 4286 f23f 6456 3b47 7d8c d23f
00000200: a664 db22 765c 903f 2623 e095 6cc1 fd3f
00000210: de86 9964 e166 fd3f dd3f a9b4 a26c ddbf
00000220: 4d4d 9ae5 384d 07c0 32e4 c13f ae2f f93f
00000230: e81e 9f01 6d4a e63f 3615 5dc8 da01 d5bf
00000240: c0e8 dc43 e29e 0040 e470 5f3d 691c 0640
00000250: 0f28 b234 da3d fabf da92 b939 24fc 00c0
00000260: 799b 9f80 03a0 eabf cac3 9ef3 cfe0 f7bf
00000270: e0bb 49b5 6a92 f3bf d589 6220 ab05 f7bf
00000280: ad14 bd49 bbef 0e40 035e 8338 d577 0840
00000290: 693b bb42 9aaf 0840 d3ec c597 42e6 df3f
000002a0: d568 e4dc 9fe1 fc3f e5e4 a1ea 6ab5 b23f
000002b0: 35a3 608a 3121 e2bf d417 bfcd 9f44 f5bf
000002c0: 11f6 5f36 c893 0740 718c abab 787e f03f
000002d0: 8f30 e460 c127 e5bf 1344 d612 904c fd3f
000002e0: 5ffc b70b 11f9 f33f f7cc 0cbd be4d eb3f
000002f0: 5b37 62e9 9605 0a40 629b 59cb 7555 eb3f
00000300: 6dba c743 f0c5 1340 8924 ff80 c623 0c40
00000310: 87bd 2484 48dd b8bf 044e 8a7d 0512 06c0
00000320: e65e bbfc 83a2 f3bf abb6 798f f53e e4bf
00000330: 6349 6080 a6ec df3f 3bbd f23e d680 f0bf
00000340: 8c89 a6d7 2bd9 fa3f 80d4 23a1 c080 0240
00000350: 00ef 0321 7e4a 0040 8378 97b1 209c f33f
00000360: c417 a89c 95f0 1ac0 d96b f5b6 eafc 04c0
00000370: 8ea2 39c5 f142 fbbf bec3 ac63 1f25 e1bf
00000380: 7211 2b92 7f12 0b40 cb8d b741 51a7 f53f
00000390: f66c 9c90 4ef1 0640 6d60 ae46 5a84 f3bf
000003a0: 12eb de07 fa6d f7bf b34f c872 4ea1 ffbf
000003b0: 5736 df1c b38a 04c0 5b3f 73f6 06e9 f3bf
-4.299328505980655 -5.234483944560704 -3.532700804872169 1.1857177193858637 7.186266991113359 2.054683490179607 -0.05069407143778873 -1.604430402927805
5.414535201658876 4.762249048580608 1.1764313141676028 -2.0771911977720032 -1.7578633254402967 -0.31837894917910453 -0.9002880984898607 -2.5928588885893236
1.0748731102300568 -0.25795832690778714 -1.4934024602642333 -3.5128024611842763 -0.5770251785551052 0.4654499369598347 -2.5263979365059597 -2.0330047267877713
3.600712487184127 3.6508470014834375 -0.664951897560887 -2.1821301922732426 -1.4091045118018464 -0.8311410019134738 0.3732038459966044 0.7246776518534248
-0.24394555613368218 -1.1449403586237568 -2.8185281375059374 -1.4460410217347373 -1.4751889632355066 -1.427375307528708 -2.7697712331136284 -0.8340203410183206
0.04691531920433655 -0.6462368725452892 -0.4532628449962766 -1.2866822604796655 6.999364763577825 1.345276334669 -1.3002737306299925 -1.0917097845175452
5.362122582711589 2.6574752663381633 -1.6774433255674255 -0.9355285874245637 3.0317760767548156 3.137706775900299 3.811991191061936 1.828135241918667
2.1195259379242906 1.9630659080149218 -0.250170044259121 0.4635576605026743 -4.081458127761128 -2.892836759098745 1.1577778625321864 0.2898247905371589
0.015977712514403074 1.8597226957810533 1.8376172952343306 -0.45975558893860385 -2.912706178447172 1.5741407862208345 0.696585181395645 -0.3282381970096425
2.077580003909219 2.76387260386956 -1.64010067543359 -2.123115969634779 -0.8320329200913498 -1.4923858181393705 -1.2232462960780524 -1.4388839020763176
3.867056442339694 3.058512155064592 3.085743447626943 0.49842896291347677 1.80508409772897 0.07308071354227115 -0.5665519430814131 -1.32925396318159
2.947159218600753 1.0308767991889705 -0.661102952233266 1.8311920867747673 1.2483072717439183 0.8532403652556287 3.2527292473886695 0.8541821452789515
4.943299349847263 3.5174684598792436 -0.09712651468429644 -2.7587995345909366 -1.227176654085207 -0.6326854517225987 0.49881899391870926 -1.0314543208040294
1.6780203269814562 2.3128674115237686 2.0363733844113767 1.2256171166586973 -6.734945724258015 -2.623494557728446 -1.703843851481142 -0.5357815691733021
3.3840323848145824 1.3533489768095588 2.8678256318795503 -1.2198126564963119 -1.464349776025021 -1.9768814548196871 -2.567724443017862 -1.2443914057693835

layers.4.kernel.radii f8 [4]
00000000: 0000 0000 0000 0000 abaa aaaa aaaa ea3f
00000010: abaa aaaa aaaa fa3f 0000 0000 0000 0440
0.0 0.8333333333333334 1.6666666666666667 2.5

layers.5.kernel.weight f8 [240]
00000000: dbcd 8ab2 dfb5 e33f b521 5b98 def9 f63f
00000010: db45 c083 41b3 d73f d325 03c4 e8d7 df3f
00000020: f013 013f a089 e93f f816 667d ddde f0bf
00000030: 97e5 6b40 7514 d93f 3946 70cb 482c f2bf
00000040: c991 5d63 e9bc fcbf a15b 656b 0969 e83f
00000050: 37e5 39c6 b801 f1bf 4efb 60bf b22e ecbf
00000060: 65b1 de47 cb05 0340 4a48 30f6 6dfe 0540
00000070: 2446 c486 d1c3 cebf f4c8 4779 1a25 e4bf
00000080: fb0a 3048 97ba b7bf e0a3 745b e31f 08c0
00000090: 5186 910e 741a c03f 97c1 edf9 7cfd e9bf
000000a0: 44f6 9465 0a84 e9bf 21e7 c2da 167c e73f
000000b0: 074f 96ee 8b3e cabf a7b5 20d1 f161 b13f
000000c0: 6017 aec1 a2ac f33f 51ea dac9 f89f fe3f
000000d0: 6805 1513 3e7d fc3f 0250 b62d 2d0d fe3f
000000e0: 5ec7 0540 cfd6 0f40 fb10 6d3f cd1b f13f
000000f0: e279 bc9e 6c44 f6bf b9ea 5cc6 2c5f dbbf
00000100: e8f7 db0b 83e7 e03f c5f7 31c9 c7b7 afbf
00000110: b0d6 fea5 bcd6 d03f 7966 e202 b605 d23f
00000120: 9e91 7c63 118d e03f aa60 03a8 808d aabf
00000130: e434 bcaa 8e0b e8bf 29dc 62d6 1d6b f2bf
00000140: 09fd fa01 a251 f33f ce76 8de8 0b71 d4bf
00000150: dae0 ad40 bbc8 d0bf 01c6 a062 7f0d fe3f
00000160: 4a12 23b3 8f04 0040 8aff 57c9 e349 f13f
00000170: 7fcd b874 e14f e13f 55c3 568f 36cd d3bf
00000180: c63c 3c73 78a2 ff3f f32f 1119 e831 e13f
00000190: 3b71 8a67 0019 debf da26 336d b23c f83f
000001a0: d2e1 7255 b942 0240 049e 454e 7409 eb3f
000001b0: c47b 18fa 187a edbf 7775 cf74 dff3 b23f
000001c0: 12db 7338 8559 bdbf 0b3a 89f5 aa17 06c0
000001d0: 2be7 b8cd f812 f4bf c64e e096 5981 f8bf
000001e0: ef0d 5c30 d95d f5bf fe56 89d1 0662 0bc0
000001f0: e1c6 fc61 24aa 0d40 7bcf a889 541b f93f
00000200: 8672 9990 c957 fbbf 2e87 a26b c9fa fa3f
00000210: 52b8 6a32 fa20 e3bf 9152 dda1 80d4 f0bf
00000220: 10f9 5cb9 57ce d6bf 6338 b259 9bd1 c0bf
00000230: d13d 3534 4ba8 e83f 305d c552 854d d63f
00000240: 617c 74af 1956 e33f a481 7ae6 989b 1040
00000250: 708c 3898 676c 01c0 ff3d 8f2e b71b ffbf
00000260: 34d1 ca62 a0fe f83f f9ea 91c3 8340 eebf
00000270: 5b96 4aef b3c1 f9bf d02e 9a57 9e5c adbf
00000280: 72d8 bbdb eb97 f03f 5d91 816e 7460 ed3f
00000290: 87bb df2f 1ec0 f3bf 994a fe50 763f e93f
000002a0: a0db 3b44 d0e2 f4bf ce0a d966 5457 06c0
000002b0: 553a 5591 816d 0a40 4972 5840 3226 00c0
000002c0: 98a0 ea2f 4d34 e8bf ea7d 3640 5f91 e63f
000002d0: 2493 c2f6 b3ae bbbf d027 e946 e656 d83f
000002e0: 129b 8bf5 4b6d e93f f079 b65c 36d7 0c40
000002f0: daa1 5d1a a7aa 79bf 5e0e 20cf f43c eabf
00000300: 4bfa 918e 6d49 e63f 2075 0d79 5a38 f33f
00000310: 7705 a87e 715e a4bf 3ce3 1081 bb51 fb3f
00000320: c805 536b d123 dfbf e1af 212c f722 d43f
00000330: 40b3 a432 b6ca e33f 5a9e 2979 1543 d33f
00000340: 3b37 4aa2 fbb7 f93f bae8 c312 b201 e7bf
00000350: d0f3 5115 3336 e5bf 0b89 1ba6 f707 f9bf
00000360: 6abe f6f0 84db 93bf 5cb5 6438 3c27 f03f
00000370: ec82 7da0 b234 9fbf 892c a5e3 bc08 9b3f
00000380: a539 2df3 c5ed ccbf e2b5 43b1 10fd d33f
00000390: 85e0 f203 1d09 e4bf ac5e cdc1 46f4 dabf
000003a0: 3b48 2fa1 4b05 c73f d7db 869d 27ae d8bf
000003b0: a0fa 7124 526b f43f 6a69 857b 2585 f13f
000003c0: ca4f bd25 0ec7 ecbf d5af bfc3 6798 e0bf
000003d0: 1bb5 0e57 d000 0440 90fa 18c5 2689 af3f
000003e0: 3c53 570b 0c69 523f f089 9f4b 5c6a d2bf
000003f0: 4a65 0af6 4405 e23f bae0 95ff 9ff7 e4bf
00000400: 5e7c 3b16 d8b1 ecbf 819f 3f65 d78d d4bf
00000410: 9660 c06e d60d dd3f 8264 2b46 195e abbf
00000420: 6c3d 092d 8ac9 d2bf b97b a1cf ddeb 0440
00000430: a24a 2973 8c7a febf 2598 bad6 f2ba e8bf
00000440: 2313 98c6 594f fd3f 0236 e589 1531 d1bf
00000450: 10c4 6272 0aa3 e9bf 87b2 b2dd 0969 cbbf
00000460: 39ec f39d 5859 d73f da2e 6218 8965 f63f
00000470: 1156 5da3 3249 e8bf 654c e121 e146 c63f
00000480: 7186 d2e1 2139 0a40 cc7e f572 7204 0240
00000490: 224b a31e c8a7 f23f eea3 60f9 e391 d2bf
000004a0: 4e09 e1ef 85d3 c9bf 3caa ca8f 1419 f33f
000004b0: 3ef5 f44a d45d fc3f 671c 73f3 27b6 e13f
000004c0: 5512 3feb 93c5 d43f 25f4 b7d8 0ae8 fcbf
000004d0: fe0c 732f 26d2 ebbf 8826 86d7 754c eebf
000004e0: 3ca9 2330 62a8 f23f 0b65 1cca e4c9 0640
000004f0: 43f6 77c6 b8f3 d73f 0c2e 183f 14ec ecbf
00000500: f56b 48db de57 f33f 2621 1ba3 def4 b5bf
00000510: c9b6 75c4 ee5b f1bf 4f7e 8c51 fd62 f8bf
00000520: 7e59 daa8 987f e0bf 354a ca81 5b70 ec3f
00000530: cbdf 0f08 3f99 f13f cb34 8ba3 82e8 e2bf
00000540: 44f2 f263 b654 d4bf 0759 d364 f6d8 ffbf
00000550: 2f3e 731b 0eb7 863f c212 e2ff 5620 bb3f
00000560: bcd4 4b5e 40cf e13f 51bf 017d 23ad d33f
00000570: 3fdb 1e15 95b5 e1bf 4529 7dd2 b214 e3bf
00000580: 7223 c404 b832 c8bf d3da 17fc a69c d33f
00000590: 7553 7e72 72fc e03f 9ed6 dabd 78aa ca3f
000005a0: 0a43 2bef 510b 0340 ff13 8a87 0aa4 fdbf
000005b0: 71c4 e293 0b0c 12c0 89a7 30d9 a346 e63f
000005c0: 32f5 cccf 1fee debf 5dcc 594b 0b5c 01c0
000005d0: 9ded fbef 244f c5bf 8bcb 3aa8 82c1 e03f
000005e0: 7dfa 9d64 af9b e63f c63c c2eb 5b93 c13f
000005f0: ee43 05aa eff7 ccbf 400a 53fa 5701 db3f
00000600: 5594 4e80 c090 f8bf 7194 2e8c bf3f 06c0
00000610: 6b6b dfd1 a588 f33f 9d2f ecaa 554f d23f
00000620: 477b 2b5d 4dc6 dbbf 2ca0 8c72 97b2 c9bf
00000630: 2b14 1ce9 75b6 e1bf be08 1b03 3d79 d6bf
00000640: e184 62f9 99f9 efbf 5cd0 04ac a663 f9bf
00000650: d691 c6e4 42de e43f f421 c625 20db f3bf
00000660: 49aa adba 368e f6bf b02b b7ba da31 fd3f
00000670: f820 586c d74d d5bf 99e2 6af7 539f f0bf
00000680: cedf 4e8d 1c61 da3f 57ae e6ba 2025 f43f
00000690: dd06 7c88 d24e f23f a74a b069 3808 f2bf
000006a0: bd25 ee9f 623e fd3f b5f6 908b 6958 c1bf
000006b0: 155e 7de7 bf99 e73f 9379 a26f d701 efbf
000006c0: db72 7ddc d302 f6bf 13d7 2c68 2ba5 0e40
000006d0: a725 d7a3 79dc febf 4350 ddc7 2113 e73f
000006e0: ffef b029 f650 fa3f 8aec 2cc7 84d7 ebbf
000006f0: 71a2 6a96 d852 e43f f8a3 1e92 744e cebf
00000700: 64db e96e 79a2 e73f 40af a533 4a40 e3bf
00000710: 8796 0603 d8a6 e1bf 07b7 c4f0 3eba de3f
00000720: ca31 fac7 b080 0840 203a 0628 1b8c c6bf
00000730: f975 fb59 6d41 0dc0 9043 2386 c0bf 0340
00000740: 3c4e 2718 6cf7 e13f 5f89 2cf5 1e6f f6bf
00000750: 8e3c 5e58 bd3d e9bf 3da1 55ba db94 edbf
00000760: 3cc6 f252 7149 f93f 4ce5 7e5c e4dc f3bf
00000770: c2e1 d8ca 5eff e43f e5ad d103 511f e23f
0.6159513938095488 1.4360032988935079 0.3703159128791335 0.49755305425477764 0.7980500441122995 -1.054410447920814 0.39187365809592606 -1.135811609918518
-1.7961210137810772 0.7628218743874308 -1.0629203551491864 -0.8807004678600181 2.377829133494901 2.7492331727490056 -0.24035090523152391 -0.6295292252309808
-0.09269090187448718 -3.0155703682871575 0.12580729209280375 -0.8121933823986635 -0.7973682388325831 0.7338976166422279 -0.20503377103579387 0.06790076594980708
1.2296474042536474 1.9140556225744556 1.7805767770190304 1.8782169137602982 3.979887485672335 1.069287536390276 -1.3917051506647273 -0.4276840150011299
0.5282607299448019 -0.061949008283576336 0.2631065007256934 0.28159857064893107 0.5172202056024167 -0.051860828885481894 -0.7514108023330235 -1.151151502080902
1.2074298932419103 -0.31939981184210076 -0.26225167576150243 1.8782953121811945 2.0022272105291323 1.0805394997587165 0.5410010604595498 -0.30940021512929167
1.9771656514529226 0.5373421182243859 -0.47027597533612536 1.514818598329319 2.2825800586399305 0.8449040917157054 -0.9211544880562248 0.0740337047750098
-0.11464722278820386 -2.761556547403648 -1.2546318088556727 -1.5315795796968117 -1.3354122056051627 -3.4228645677602563 3.7080772071138743 1.5691724183388647
-1.7089324615873536 1.686227245758754 -0.5977755531982984 -1.0518804858049047 -0.3563441572367916 -0.1313966930360407 0.7705436725317957 0.3484814937887277
0.6042602946144023 4.151950455882261 -2.177931966043211 -1.944266492722704 1.562164674670453 -0.9453753299452209 -1.6097907397574065 -0.0573472482620595
1.0370901664114425 0.918024268944048 -1.234403788573873 0.7889968473339933 -1.3053743996986 -2.7926414523111367 3.3034697870382765 -2.0186505343429286
-0.7563844619626421 0.7052456144482993 -0.10813450598159285 0.3803039257514884 0.7945918842131923 3.6050841563403466 -0.006266262765941078 -0.8199409528173864
0.6964633736204829 1.2012581566444354 -0.03978304549310512 1.707454208530364 -0.4865611599053321 0.31463412580228406 0.6184950818184021 0.3009694751003501
1.6074177112054275 -0.7189569822796991 -0.6628661552818986 -1.5644451607300336 -0.019392087180391128 1.0095789149157417 -0.030474463506268742 0.026400519747124682
-0.22600626348362343 0.3123208743189406 -0.6261124684451863 -0.42115944791792503 0.1798491036448143 -0.38562956222034245 1.2762013839380089 1.0950064492268106
-0.8992987382030091 -0.5186041663378044 2.50039737714418 0.06159325748420941 0.0011236779804352911 -0.2877417315013693 0.5631432347756029 -0.6552276603606721
-0.8967094835496814 -0.3211573113207962 0.45396958175252544 -0.053452291312802394 -0.29355101011329654 2.6151691647678175 -1.904919099663552 -0.7728208726809994
1.8318727262096182 -0.2686208578714685 -0.8011524423692453 -0.21414302182292408 0.36482825684624093 1.3997889473420657 -0.7589352789606797 0.17403806833553684
3.2778966562626057 2.2521714192551823 1.1659623333732232 -0.2901544509246027 -0.20176767552227165 1.1936231247770044 1.772907536316168 0.5534858469844836
0.32455919240263614 -1.806650969082747 -0.8694029738184381 -0.9468335351422903 1.166109264415879 2.8485809125819563 0.37425059682559353 -0.9038182480157402
1.208952766965692 -0.08576766473845918 -1.0849445032321674 -1.524167364645013 -0.5155757234486342 0.8887155089344733 1.0999136271402559 -0.5908826059545843
-0.31767043839116504 -1.9904693544863805 0.011091337406838068 0.10596221682687726 0.5565492479060121 0.30744254310319713 -0.5534158146391305 -0.5962766753303091
-0.18904781563494627 0.30643629663920285 0.5308162914467248 0.20832738180404403 2.3805273709371066 -1.8525491041666553 -4.511762915340214 0.6961230508797921
-0.4832839516928572 -2.16994341724198 -0.16647779195760118 0.5236218724952421 0.7065045323541451 0.1373095418134424 -0.2263164119890741 0.4219570107053734
-1.5353398334493893 -2.781127066775803 1.2208612630990625 0.28609220210705094 -0.4339784059392752 -0.20076268285015553 -0.5535230210231296 -0.3511498003318926
-0.9992189284131677 -1.5868288726315063 0.65213150675532 -1.2409974551720753 -1.4097201625942424 1.824671487195456 -0.33287606792920554 -1.038898436045349
0.41217721747989067 1.259064416963971 1.1442437488007535 -1.1270069244825807 1.8277307746196663 -0.1355106288410092 0.7375182648929149 -0.9689747982372857
-1.3756903279201456 3.8306491984066127 -1.9288269424454059 0.7210854438403732 1.6447660091935175 -0.8700584306856325 0.6351130426238126 -0.2367692674136206
0.7385832945136426 -0.6015978821501236 -0.5516166743370413 0.480117545247467 3.0628371833065318 -0.1761506982260963 -3.656946852671123 2.468628929091615
0.5614529105900554 -1.4021291329487082 -0.7887865758838346 -0.9244211806626833 1.5804303398293902 -1.2414287198174234 0.6561731302127145 0.5663228106108674

layers.5.kernel.radii f8 [4]
00000000: 0000 0000 0000 0000 abaa aaaa aaaa ea3f
00000010: abaa aaaa aaaa fa3f 0000 0000 0000 0440
0.0 0.8333333333333334 1.6666666666666667 2.5
