examples/point/missing_point/revised_batch_pth/missing_point_1_epoch_200.pth (torch_old, 68816 bytes, 14 tensors)

layers.0.weight f8 [15, 5]
00000000: aec3 8253 746f b6bf eaf1 d0e1 75bb e13f
00000010: b0c1 6924 1ca4 d23f 6a8f e603 5824 ce3f
00000020: eb12 edff 24e6 b03f a2b8 de48 0c66 c9bf
00000030: 34cd f85b d364 e3bf 126d c1fb 5746 ec3f
00000040: e141 97bd f94e e53f b40d f20f bc85 bcbf
00000050: cfac 8b7d 53db f5bf 2f1f 71a6 3498 d73f
00000060: 357b fec3 7240 babf f890 9988 bb9e e4bf
00000070: 5775 c0fa 94db d2bf 1aad b9c9 70ae d13f
00000080: 4955 b677 e5d5 d33f 317f d6be 7816 e2bf
00000090: 9309 c6b5 0644 e4bf d7e7 b64d 221a b83f
000000a0: d2bd 2b13 366e df3f 2d96 34ce db6f d8bf
000000b0: 11c7 e69b e15b d73f 3fe8 8d7b abb5 e03f
000000c0: 6ec5 fd6a d8cb b03f f578 bf60 25e3 e93f
000000d0: 0e8d 44b7 b0c0 debf c488 0015 6ac8 dc3f
000000e0: 18b8 26b4 2cdc ccbf 2006 95f8 f356 ef3f
000000f0: 70b3 ef19 8db0 d3bf 1761 5ea5 3500 c93f
00000100: e0ac 7ace 6e38 dc3f 87f7 58ab 7c4b edbf
00000110: 70db b6f1 af01 e2bf 0abe a5b2 039c b9bf
00000120: a978 0740 2c48 e43f 7ef0 748d 53c3 f5bf
00000130: b7ab 681c cdcc dcbf 0049 3eee de8d e3bf
00000140: e1a2 7771 68a3 db3f 4904 48aa 5838 d13f
00000150: ee86 5ec4 3f5e ed3f 7dfd 051f 8cd2 c43f
00000160: b887 e1c2 9930 6ebf 805e b9bc 636f c5bf
00000170: 9e7f d175 8709 e23f 27aa ecb3 586e e3bf
00000180: 0b7c e4b4 8592 f3bf 786c 2fdf 121f c7bf
00000190: 8ad7 a223 d8e4 e83f ce79 cfd9 80b5 efbf
000001a0: 9961 cd9f 7707 e73f f8e3 4571 549b e93f
000001b0: 0b65 2086 1cf1 eb3f ec06 ad98 f1a9 e53f
000001c0: 6e32 291d f4d6 c6bf 2546 1c25 f14c a23f
000001d0: 5e2d 5c49 ec82 cf3f 0699 3230 3dcb c9bf
000001e0: 029d 8178 4cda debf 50d5 9c5b 70fc dabf
000001f0: c2a7 7e1e b4aa eabf 789e 1987 592f ffbf
00000200: 3d70 d4b8 6569 e3bf ae0a 6fb5 f27e d6bf
00000210: 9297 d207 3983 9f3f 7353 7f7e 5d79 d33f
00000220: 78c3 2ee0 f8f1 c1bf 28c1 0ed6 c730 ed3f
00000230: a176 50fb 2bc9 e8bf f8a0 d37b eb51 d63f
00000240: 29dd d2f2 2e2e c6bf d3d7 e4fb fc26 d9bf
00000250: 7ab2 0e46 8c82 edbf
-0.08763815916860437 0.5541333590004431 0.29126647525756777 0.2354841250463509 0.0660117268390185 -0.19842675741296484 -0.6060578152013592 0.8835868756390559
0.6658905699678678 -0.11141562833113633 -1.3660464195370883 0.3686648965271954 -0.10254590306292928 -0.644376532360666 -0.2946522186992601 0.2762720079396829
0.30993019762657475 -0.5652431227972327 -0.633303980852633 0.09414877316785862 0.491101759645031 -0.38182730805633264 0.36498298859361095 0.5221764958544169
0.06561043369381078 0.8089777841194336 -0.4805108823513401 0.4497323231791024 -0.2254691962857016 0.9793643813247321 -0.3076508286747446 0.19531889509813347
0.44094438709244166 -0.9154647204047571 -0.5627059670431276 -0.10003684150228068 0.6338101625986116 -1.3601871038108864 -0.4500000741415379 -0.6110682156743508
0.4318486316756616 0.269064108171794 0.917755015882191 0.1626753951531831 -0.003685283961247312 -0.16746184077304704 0.5636632252826421 -0.6072200311803656
-1.2232720438112235 -0.1806357946178172 0.7779350944535832 -0.9909061674223325 0.7196615334642501 0.8002111637462113 0.8731825465830821 0.676995084948627
-0.1784348623645146 0.03574327066429487 0.24618295270952734 -0.20151486256981616 -0.48207389610475115 -0.4216576475767697 -0.8333378406143697 -1.9490599896761562
-0.606615887637879 -0.351498295956996 0.030774012663321644 0.30428254464396004 -0.14019690462512435 0.9122046643078976 -0.7745571049196834 0.3487499913449166
-0.17328440529466008 -0.39300465201392604 -0.9221860283192449

layers.0.bias f8 [15]
00000000: 41c7 3a0c 2a1e ca3f 8391 61c7 3173 c53f
00000010: 7984 b7da 031c cc3f 34da 313a 53b7 ac3f
00000020: 81b1 b022 7544 c2bf 878e b166 a7fc d3bf
00000030: f908 77f3 eab4 e1bf f52b 672a cb6a c3bf
00000040: 7e2c 601a c226 9e3f c86b 243e 5735 9cbf
00000050: 0119 aca1 ef9e c83f d2cb e497 a892 d5bf
00000060: ab0f a60d 66ed d7bf eed8 3e9c 7f16 c53f
00000070: 718c e71e 4815 e6bf
0.20404553982876375 0.16757795558363506 0.21960495166334562 0.05608615956673582 -0.14271415895326459 -0.31229577091856026 -0.5533346896338848 -0.15169658251247112
0.02944472585663193 -0.027547228973258148 0.19235034364846373 -0.33707632859585346 -0.37386466343763897 0.1647490990560025 -0.6900978664019829

layers.2.conv.kernel.weight f8 [1800]
00000000: 0ea9 a7ce 8ebe eb3f f39a 102d c63b e1bf
00000010: bf9c 138b 137f c2bf 59e0 d5b5 d1c5 f4bf
00000020: a95d 8eb4 3aee f9bf 14d2 94c2 15e7 f6bf
00000030: 85d2 1a12 0bb3 f03f df07 8e82 1fec e73f
00000040: 27a0 b7d1 c145 c3bf ca67 0611 ec65 dd3f
00000050: 2729 ce40 918a f73f caa2 ba3d 3b18 e83f
00000060: 6b6f 375b 99ca d2bf a4ae c57d 7068 0140
00000070: 804c ab1b 1421 f03f 3346 b7c1 d882 d5bf
00000080: 9ddb d36a 9ed7 e9bf 1779 86d0 a887 fdbf
00000090: 224e b0e6 fa5c b33f 10cf f60d 0cf1 c93f
000000a0: 83e5 da4c a83b f2bf 0103 6d8c 0a30 d7bf
000000b0: 7eb3 3389 724c ee3f 4c76 1301 7f96 c9bf
000000c0: 5273 4a8d 0609 d5bf 8a95 258f 60ca cebf
000000d0: 2ace 5616 cf04 f83f 7cf7 d1e6 1988 ffbf
000000e0: 3daf 7bca d493 c73f f7fe c3fd a590 f0bf
000000f0: e627 2786 78f2 eabf 8a9e ec3d b3cc e03f
00000100: 9bdd ff91 c8bb b9bf bee0 ed5f 767e eabf
00000110: 2d2f c910 27b0 fb3f ce3a e0b3 4478 fabf
00000120: 527e e399 9dcc f53f 512a 567e e58a fa3f
00000130: c733 4bbd 3bd7 c43f e4e8 98a6 2290 a2bf
00000140: 061c 9b3b 3d90 e0bf e436 2572 7424 8fbf
00000150: d4c9 ef08 4cf8 e23f 78ef 8734 1e5e dd3f
00000160: 7cc7 5d97 e422 e03f 76eb 7e54 ae78 a53f
00000170: ffe7 43b8 19f0 eabf 6fc8 17c3 513e fa3f
00000180: 7869 9d81 4ba3 d8bf 755c 4912 eba3 f33f
00000190: d7ee 1a05 af54 ffbf f8c2 0f9e 96fa e4bf
000001a0: 6d3a fd81 af8f fc3f 3246 c2df c775 f3bf
000001b0: 42cf af9f 592e df3f 2a9b 66db 94d0 0340
000001c0: ce22 a7ce 1eee ef3f 2732 5253 2845 f13f
000001d0: 9285 3e56 f2d0 e0bf 1fd7 311a acc0 f03f
000001e0: 79bb 9681 fcb8 ffbf 5d3b 3cde 1e1f dc3f
000001f0: d2df 84b0 b7e7 f23f 1b73 c353 3655 dc3f
00000200: 89ff 4a4f e181 f7bf a921 027b 2701 f2bf
00000210: d484 6998 15e6 ba3f 64fa b924 1009 ab3f
00000220: 2bb0 b9b1 32f0 d63f 1f0a d2d9 526c b1bf
00000230: a56b 78bc c142 ee3f 11eb a957 f22f b13f
00000240: b08c 12da 5e70 8fbf 6e1a d9e1 f9f8 00c0
00000250: 25d6 6307 1283 d83f ff51 d988 07c3 00c0
00000260: 5127 3163 ca0c e4bf 311d fa09 0c76 01c0
00000270: be5b 8885 a7c4 cdbf 41d8 10a5 1807 b73f
00000280: 8c8f 9ab8 ae88 ef3f 5a4b 2b60 3b47 ef3f
00000290: 79f1 51b7 6a6f 01c0 471c 55aa 8190 adbf
000002a0: 4d61 7a8b edae f83f c5d7 63c2 5984 d13f
000002b0: a686 0e18 6976 cabf e84e 1a9c c102 d5bf
000002c0: 0a65 bfbd 05de f7bf a8df 6695 a86c f93f
000002d0: 9b05 1d9b 86fc e2bf b030 28bc ee49 d13f
000002e0: f2c3 f5e1 f042 ed3f fe17 89bb ae2d dfbf
000002f0: 4b41 df5a 8cad e1bf 422f 3f2d 0501 ef3f
00000300: bcaa 5b1c 7c4e e43f bf2a 6110 6f30 f6bf
00000310: 465c f548 9db6 f5bf bcee 207d 1b44 b0bf
00000320: 4fba 9797 b197 fabf 20df 2d76 247c cebf
00000330: 3f2a a873 22f8 f8bf f357 2cd9 684e 0240
00000340: eaa6 cbb8 2d4b ec3f 2089 697f 32ed d93f
00000350: 4606 2c9c 74ad e1bf d035 f541 ab16 e1bf
00000360: 5f97 f5eb 41ea f23f c4d4 23ef 07a4 f23f
00000370: 27e4 f036 01ef eebf c85a 4cf2 9d2f f9bf
00000380: f740 377f 4f2d e33f c09a c926 2c59 dfbf
00000390: 2109 dd90 a3f7 e93f c4bf 1dc9 517a d5bf
000003a0: 483a 1c0f f4ca f93f c20a cc96 c102 f23f
000003b0: 7a2e aad1 1f25 f3bf 05dd 455a 1f26 dc3f
000003c0: e01f 0d16 f67d 02c0 cb90 19d1 f777 f0bf
000003d0: 3f1d ea57 5820 9f3f ce83 3b22 0550 ff3f
000003e0: f88b 0a74 3c9b ecbf 6e02 4c47 090c f3bf
000003f0: dde8 bf6a ca71 bcbf a6c1 ef2c ca8f eb3f
00000400: fe78 f692 ab5c eabf a391 709d 9a35 debf
00000410: e9f8 2850 3ddc e73f 3ad4 193c d340 00c0
00000420: ea88 f547 0594 eebf e5db 9051 8ad6 e83f
00000430: ed25 79d6 46d7 bcbf 1342 1c72 1c33 d6bf
00000440: 8f5b ebc9 5d9c f5bf 16da 77a4 1f1f c0bf
00000450: 6293 5485 8f9d e53f 28e7 e5a3 ba38 f3bf
00000460: f1f9 0105 dc0c f83f b582 1a2b e611 0240
00000470: 94e3 1688 8527 e83f 8bcb 35d2 26c6 eabf
00000480: f839 2848 1835 e63f cbee df6f ec3f d93f
00000490: 9113 4281 4c87 dfbf 4ef3 a61c 6ba0 f93f
000004a0: bc78 c3e9 8337 efbf 75f2 2c0c dac3 ff3f
000004b0: 8955 5298 b47a c83f 0cc8 e42c 965a c9bf
000004c0: dc79 8c59 4db3 dc3f 9fc2 6e81 5c5a be3f
000004d0: 4aa6 94fa 650d d2bf 0fb2 e034 a1ff e1bf
000004e0: 8a61 407a e6f2 d53f b42f 1c24 ee7e ffbf
000004f0: c33f fc00 264e eabf 3343 ab7f 582e b9bf
00000500: 0be3 0579 a146 d2bf 3bd6 eb75 2caf f03f
00000510: 94c7 5e8e 01f9 e1bf 0d92 bd12 6b57 e53f
00000520: 54ac 0a35 84eb e2bf c0d0 e522 6522 e3bf
00000530: 0577 d404 9f4c e83f 91a7 3873 bebb d6bf
00000540: 0300 e30a 25dc fd3f 060a 3590 d305 fa3f
00000550: f7cf c363 3d6a ea3f fc59 dffb a47b e13f
00000560: 362f 99f6 ba91 d33f 3acf 99b0 5866 fabf
00000570: 0751 5602 ba70 f1bf a296 3783 d74c af3f
00000580: 5028 9480 4c62 06c0 ad8e 741c cc44 f33f
00000590: 3b46 81d3 3224 e13f 2147 2e01 b346 e23f
000005a0: e928 aced 81ab 00c0 2ebb 0254 78ee aabf
000005b0: 10d0 4947 e9fb f93f cc18 7542 e0f0 f63f
000005c0: 47ce ff04 fa1e c9bf 5ab1 fdf2 9664 02c0
000005d0: 0c89 e666 5f24 f43f c8d9 de94 7a68 0540
000005e0: afc9 fbb5 59a6 f0bf a735 7c9b ed76 f33f
000005f0: b3d0 8359 ed7c e53f 2aca 8f05 76e1 df3f
00000600: d8ad 38f3 07cf dcbf c1cb 3841 edf3 eebf
00000610: 79f5 dee2 a4ea 97bf 7f5f 302d 5d02 cf3f
00000620: a46d 1278 33f1 f63f 628b 8fd3 d2a4 e2bf
00000630: a1cf 8da1 e381 dbbf 0c84 0d8b 9017 d03f
00000640: 9a1c c09a 379f f33f ac19 4d55 bc4a f1bf
00000650: 9991 2692 ffac e7bf dac8 e4e9 2e8d f03f
00000660: e971 312e 3da2 e63f 3fb0 3142 a5b8 d73f
00000670: 6124 aa96 1840 e8bf ebda c4c4 fa8c dbbf
00000680: df76 756d 141a d53f 4efa dd6b 3011 f4bf
00000690: b1d2 b23d 520b f93f 2a0b 65d1 5996 ea3f
000006a0: 2778 2225 1592 02c0 8eae f44f 5dfe fa3f
000006b0: 0ac9 93aa b0de e33f 8dfd cbfa 21b7 f83f
000006c0: 074c bb6a 3de1 f03f 94b7 eee3 a45b 9e3f
000006d0: 8a46 9170 e391 ebbf b458 c90d 07b8 f2bf
000006e0: 596c d923 2ac6 c8bf 470c 3f3e 3223 e93f
000006f0: f852 26a7 f6c0 923f eef3 ca0c 856a f2bf
00000700: af1b 6fc4 74c4 a6bf fd9a 4cbe 92e0 f73f
00000710: 3598 a42e e249 f5bf 92f3 0d5d 9d50 e4bf
00000720: 5e2d a541 8367 dbbf 5011 a4b0 c472 e83f
00000730: 78b4 bc93 f253 ec3f 697f 5d65 86bb d3bf
00000740: 43e0 50df c4fc 00c0 e7f4 5697 a6c6 dbbf
00000750: f881 7d23 b9b3 eabf a467 c4f4 8afa f73f
00000760: 6986 0cf4 5385 81bf ffb1 64e2 6135 fd3f
00000770: e8fc ca57 5e9d dcbf 7a2c b3ad 3962 dc3f
00000780: c942 cf3e c2c5 01c0 e627 51da 436b f33f
00000790: 1387 8e3e 2187 ec3f 4308 da16 adba 98bf
000007a0: 212d 69d3 98d9 ea3f 05a4 e82e 12ca ecbf
000007b0: f982 4173 89fa f1bf 6b70 5613 8647 eb3f
000007c0: 6d6e 60d9 24ba c53f ab13 e7d2 6453 e1bf
000007d0: 88c6 0845 01ec e7bf a807 48d7 72a2 dbbf
000007e0: 3286 2a94 5208 e93f 0dfe 9b66 6065 e33f
000007f0: 0dfa 466a ccfc ce3f 8eea 4ca0 589e cf3f
0.8670114551762553 -0.5385466461346752 -0.14450306216096995 -1.2982956984469836 -1.6206614544843012 -1.4314172364075874 1.0437117297380223 0.7475736188791834
-0.15056631794073036 0.45934583342170454 1.4713299304444918 0.752957935871643 -0.293615664557129 2.1759958101227586 1.0080758171868922 -0.33611124913759055
-0.8075706564403508 -1.8456199784773781 0.07563751346634054 0.202668673342139 -1.1395648004675827 -0.36230720246753384 0.9468319587445959 -0.19990527679958559
-0.32867587850505686 -0.2405510615309761 1.5011740563030664 -1.970727826730097 0.18419895064232064 -1.035314551612769 -0.8420984859633307 0.5249878129443044
-0.10052159847679436 -0.8279373048417467 1.7305060058306012 -1.6543623949434507 1.3624549876475567 1.6589102683089048 0.1628184007917339 -0.0362559154859399
-0.5176073230912841 -0.015206250890197955 0.5928096937698748 0.4588695061681771 0.5042593914388216 0.04193634778444892 -0.8418091391497454 1.6402146931473245
-0.3849667325754562 1.2275191034621262 -1.9581747245237489 -0.6555893981113448 1.7850794866277753 -1.216255067880763 0.487203985160921 2.476846422261038
0.997817424410721 1.079384160492859 -0.5255061802346737 1.0470391295652417 -1.9826626836836267 0.43939944937385694 1.1815716643595704 0.4427009408953368
-1.4692090127354922 -1.1252817921650637 0.10507330866814196 0.05280352066346408 0.35841052394858036 -0.0680591375149011 0.9456490212499956 0.06713785782077887
-0.015351048498194991 -2.1215703625087405 0.38299990388563493 -2.095229214794244 -0.6265613496154662 -2.1826401500180954 -0.23256391544484062 0.08995203046728852
0.9854348760168121 0.9774453047087761 -2.17940276354619 -0.05774312214139648 1.5427070091592043 0.2737030409183457 -0.2067386023964463 -0.328293230480297
-1.4917046939866077 1.5890279613504195 -0.5933259038503594 0.27013748526293124 0.914421502426306 -0.48716324152007917 -0.5524350905271062 0.9688745387770512
0.6345806650036461 -1.3868246688677315 -1.3570835924090416 -0.06353923611544138 -1.6620345994557686 -0.23816352625339565 -1.5605797307822653 2.2882859198243692
0.88417707531809 0.4051023716221085 -0.5524237680658153 -0.5340172088851265 1.1821917740976102 1.1650466290860075 -0.9666753838602106 -1.5741252388740339
0.5992810711559561 -0.4898176554474212 0.8114793614734347 -0.33559078827147126 1.6120491590733241 1.1256729021558134 -1.1965635480909484 0.4398268109866453
-2.3115045283084186 -1.0292890708888531 0.030396824231982974 1.9570361458975074 -0.8939497248105672 -1.1904385361705425 -0.11111130815689614 0.8613024594943013
-0.8238122816435689 -0.4720217263695991 0.7456347051263751 -2.0316528983480824 -0.9555689244700976 0.7761890023310768 -0.11265986190951312 -0.3468695749625407
-1.3506753814196804 -0.12594981699631153 0.6754834751232972 -1.2013498689906985 1.5031395145048203 2.258739792582072 0.7548244150158205 -0.8366884332339038
0.6939813050574335 0.3945265858198865 -0.4926329862867585 1.601664649889432 -0.9755267682737876 1.9853153682335265 0.1912446731336497 -0.19807698432993026
0.4484437345980987 0.11856630477883322 -0.2820677706791669 -0.5624547989623937 0.3429504579412642 -1.9684888277579207 -0.8220396060223653 -0.09836342923086931
-0.28556095904018325 1.0427670103357645 -0.5616462498348818 0.6669211736703474 -0.5912495647402332 -0.5979486161800409 0.7593531698546206 -0.35520898105698345
1.8662462640058954 1.626422465619386 0.8254687260182426 0.5463433188804738 0.3057696731745979 -1.6499869249791588 -1.0900211421295027 0.061133131759374196
-2.79799747898236 1.2042962180648076 0.5356687670666312 0.5711302779256792 -2.083743912521744 -0.05260063195725305 1.6240017685604506 1.4338076206200183
-0.19625783199409083 -2.299116037718858 1.2588800448943998 2.6760150557049407 -1.0406128987056993 1.2165351937904718 0.6714998958909945 0.49813604872830075
-0.4501361727913866 -0.9672762178291735 -0.023356033656218387 0.24225964266292618 1.4338869753181394 -0.5826200611157726 -0.42980280663254616 0.2514382703721487
1.2263713879527018 -1.0807460147931165 -0.7398679594521581 1.034468568465448 0.7073045637330867 0.37064486946360725 -0.757824224726516 -0.4304797097751549
0.32971678437557544 -1.2541965688284509 1.5652639780138708 0.8308533754101053 -2.321329393495961 1.687100708319949 0.6209338504397988 1.5447101399184675
1.0549902123646022 0.029646469509024678 -0.8615586470206875 -1.1699286020789659 -0.19354750395254675 0.7855464187381437 0.01831422229004695 -1.1510057925909183
-0.04446759126545118 1.4923274453701076 -1.3305379697790276 -0.6348406617613469 -0.42819291506449086 0.7640098047273032 0.8852475057116314 -0.3083206167120723
-2.1234223791653064 -0.4339996793676861 -0.8344388669175364 1.4986676751345636 -0.00855508411911217 1.8255328029146083 -0.44710501264121527 0.44349519694214445
-2.221561899852848 1.2136877563484574 0.891495344334745 -0.024149612922436125 0.8390621308439316 -0.8996668735682084 -1.1236662389930514 0.8524809243858845
0.16974316228958078 -0.5414299124901069 -0.7475591991735238 -0.4317900755269144 0.782265939127859 0.6061250690544867 0.2420897978717708 0.24701984240694624

layers.2.conv.kernel.radii f8 [4]
00000000: 0000 0000 0000 0000 abaa aaaa aaaa ea3f
00000010: abaa aaaa aaaa fa3f 0000 0000 0000 0440
0.0 0.8333333333333334 1.6666666666666667 2.5

layers.2.act.bias f8 [15]
00000000: 2fd1 4f0b 436a ca3f a382 8dad 3263 ee3f
00000010: 1a1c 232c 9d79 f83f a979 2284 e29f fe3f
00000020: 9beb 54d7 08e7 f33f e921 aa12 10b7 0040
00000030: f712 d6d9 af33 0040 61ac 2ac8 e6e9 f63f
00000040: 31ea 3746 4ef4 fd3f 4c79 cce3 2991 eb3f
00000050: fee1 852f 3e7a 0040 9a21 d285 eec9 f63f
00000060: f45f 6591 3fdd f23f efc6 6398 5286 fd3f
00000070: a988 4636 904a fb3f
0.20636785557111056 0.9496091260626439 1.5296909069163633 1.914034382010508 1.243904915942699 2.089386125390082 2.0252377527671075 1.4321048563968122
1.8721449606806682 0.861470169944178 2.059688922189024 1.4242997386337266 1.1790157012492246 1.8452936127400184 1.705703937543641

layers.3.conv.kernel.weight f8 [5400]
00000000: 05a5 0a33 5748 ca3f 5c52 73b5 2be4 f63f
00000010: 3f19 84f9 c17e f0bf 3b0e 9b77 9b8f b7bf
00000020: 9b8d 3d95 b4c3 f4bf dd88 ee83 4437 cbbf
00000030: 95c2 1f27 f871 e8bf 626d 1e51 667b febf
00000040: fc14 c15f 4005 e83f 4e79 1dd3 6e8f d43f
00000050: b49c d1ed ef26 e83f cfb4 ee65 d4e6 fabf
00000060: ceb5 d403 ba29 02c0 87d5 a9ce 9cd5 05c0
00000070: 5ed7 75b8 d021 f9bf aa04 accf 1a60 d23f
00000080: 342c 2800 cd2c f83f c7e2 68ee 19eb febf
00000090: efad 0387 1252 e3bf 36c7 e40d 0f48 de3f
000000a0: 2814 4672 fe56 13c0 c71b 0d7d 6cc2 00c0
000000b0: cd79 5497 9da6 f23f 262a 17ca 50ce f5bf
000000c0: 898e 8c4b b17f f9bf 29bc 423c 4562 fabf
000000d0: e22c 153b 47b0 c03f 889d c587 7a07 d3bf
000000e0: 0c06 97cf 1e37 02c0 798a 14eb 9cb4 d83f
000000f0: 79da 594c 0f8d cbbf a6d0 1468 b97f c7bf
00000100: a45d 0c20 7b9d 1940 d57a e77e 4d76 ff3f
00000110: 8e66 107a f528 f63f 3ea6 2757 1206 aebf
00000120: 6c0e 320f 9a8c f33f fba3 00dc 4533 ba3f
00000130: 60ad 612c 7efd eebf 9a5f e48f 1c25 dd3f
00000140: fc9d a08d 7e25 d8bf 562a cd55 c8e8 fa3f
00000150: 4ca4 afa2 9197 f23f 9a50 cc9f 9e82 a0bf
00000160: 7572 2692 9c67 fd3f af3e 65ff 5a38 0240
00000170: b930 7a92 422b fd3f deb8 0cee 35ea f13f
00000180: fd01 6048 60f9 00c0 f12d a8ea c962 0340
00000190: 66f1 3671 5763 e53f 7307 7583 b350 da3f
000001a0: 2d41 622d c5f1 ffbf f154 6a15 161f f7bf
000001b0: 3059 6c8d e55f e3bf fc13 36e9 bf09 e03f
000001c0: e129 9056 9668 0640 b9a0 d1c3 34f4 f43f
000001d0: ee2f cc23 7ec6 e4bf 9c69 6645 0ec2 f73f
000001e0: 002e dd08 20a0 f9bf 6d2b a7c1 f652 f93f
000001f0: 2fbc 4199 8043 f43f ac24 ca1a bf80 c23f
00000200: bf4a 5147 93bd 0a40 2598 97be 4f32 0040
00000210: dbc2 45cc 6b45 e9bf 32dd 1e05 cbd4 0dc0
00000220: 5222 63ad 03df fb3f c78a ec50 a445 ea3f
00000230: 8b99 92e7 5655 d13f da46 c9e7 912f f5bf
00000240: f213 c9dc aa18 0a40 d742 9537 41aa 0840
00000250: c1b7 5869 e85c ebbf c456 20ad 3f03 c2bf
00000260: d93b 0a5b dcb5 0440 565e a5fc 7c42 e3bf
00000270: 5c32 41cb 4a0a e1bf 51e6 72b2 0016 f6bf
00000280: cc05 0270 cdc0 0540 bbcc 481b 6bd3 c93f
00000290: 0db6 3610 3f72 d8bf b04e a2e3 1cb9 f0bf
000002a0: b9cf 1e5c 058c fd3f 0821 4c65 1c54 e73f
000002b0: 86d3 3873 2b33 eabf a6ce 4d59 5169 e73f
000002c0: 0138 5559 cd7b ef3f 1eb5 b2ea 5ae5 f43f
000002d0: 4af3 0d90 dfe2 d93f ce62 8b78 2fbf d53f
000002e0: 1481 4ce8 594c 04c0 295a 0b76 e983 f5bf
000002f0: cd90 53e4 4860 f5bf 2615 9473 ba2b edbf
00000300: 3142 7ead bb54 e5bf 73d3 bfc4 23c5 f63f
00000310: d30a 037d 3882 e4bf 028c 514e eedd eabf
00000320: 1c82 ccd9 400a f8bf a6b9 100b 470f edbf
00000330: 42c0 b10c 85ac f63f 66c2 ccce e626 e53f
00000340: fffe 65b3 9609 fdbf b871 ebda 0727 f4bf
00000350: 80de ec5f e3ab 0240 7af1 f54f 1617 b4bf
00000360: 91d2 1f79 6b7b ef3f 25f4 e0ac 32c1 d7bf
00000370: c781 5075 d912 ed3f 82ac 9f2b 940f ebbf
00000380: 78a7 ed19 3147 d13f 714b 78e2 7b4e fabf
00000390: 44fc d39f 6d2c e03f fbe1 d1d2 6840 ecbf
000003a0: b09b 0d34 8e6c f03f b0a3 52e4 4a91 d33f
000003b0: b9ca 0a8d 65f4 e7bf 4072 5895 6429 f9bf
000003c0: 058f 23db 8a65 fabf f963 8c00 9ec6 fcbf
000003d0: f73c fef3 63bc f03f d39d 8ed4 604f e4bf
000003e0: a192 d129 0447 0040 ad43 b2aa cca6 f43f
000003f0: 9436 3569 a803 f0bf 5f6d 914c 554e e8bf
00000400: a7cd 425e 5120 ba3f 4344 2a4f 0ae9 d03f
00000410: c0ab 74fb 9cd2 f8bf db29 9bfd 617f d83f
00000420: 5bae 4494 c78f 813f 4929 7498 6f79 d63f
00000430: 11ee 3ebd 67fe da3f 6d6d 2bc8 836b efbf
00000440: a6ae 4dfe 8303 0240 47f9 441c b2f2 c23f
00000450: 1c52 32de bafd d33f ab55 9216 7375 e4bf
00000460: 395a 09ab d7df d93f b2b9 c955 5a5c f5bf
00000470: 71e1 30ab 6460 d73f 02b3 9030 df66 b33f
00000480: 519d 1f81 1958 fe3f 9f76 127a c1b2 f63f
00000490: 83f3 aedc 686c b6bf 4d71 9a8d e409 9dbf
000004a0: 5fe2 2506 8e3a d13f acdf a27a f9f0 f33f
000004b0: d21f 4607 234c b5bf ca1b 32e2 25d1 e6bf
000004c0: eaa3 af8b e8e6 f13f 78f5 639f a033 f53f
000004d0: 69fc 4278 cc7a e4bf efad 2db9 0702 cc3f
000004e0: 496e 6bfc ca32 e6bf fe85 cd56 e415 e9bf
000004f0: 44ff ab99 a09f f93f 6adc f877 bbfe ebbf
00000500: cca6 2966 579c e23f fd99 ca27 463f 03c0
00000510: f1b1 2019 5692 c8bf b924 8910 f93a dc3f
00000520: 3f7d 6fe0 2e4d e6bf 4138 5740 0ce9 f9bf
00000530: feae bb07 ff1b e63f 4858 3bd6 1a84 ee3f
00000540: 31b1 3363 44fe ecbf 02cf bc17 7365 f73f
00000550: ce55 7bbc 0f68 ef3f de98 6a68 f074 ce3f
00000560: 0609 d9af 4586 e23f 510b 7081 d7c4 ed3f
00000570: bbe5 1f53 5fcc f0bf 27d3 774c 451b e1bf
00000580: 5f18 75e7 d24e f03f 3e63 e004 a4e9 f03f
00000590: 1345 a900 3de3 f6bf 553a 5708 b697 d8bf
000005a0: 15ae bc6b 985c eabf 3214 830f a206 b6bf
000005b0: 5aea ec90 0f30 f7bf 7f1c e521 da78 f8bf
000005c0: 9fff b50d 5929 01c0 cdd9 58d2 9436 00c0
000005d0: f887 0470 1a3b d6bf 5278 975f 0d54 f23f
000005e0: 69a9 e82f 92c4 c4bf 7549 d0a5 bec5 e83f
000005f0: 92ca c76a f6fd ea3f 53ce 17f0 64a1 e53f
00000600: 3ccc c2fa ea88 e8bf c933 74bf 7831 e7bf
00000610: e335 25a2 ced3 f23f 2768 4687 b169 f23f
00000620: ace6 0312 1041 e7bf dd04 f0a0 2908 f0bf
00000630: 9e8f e6bf 7940 d13f f93c 9e1f 2609 e93f
00000640: ddaf f14e e749 df3f ce34 6081 a331 ccbf
00000650: f2ae 5542 b18f ed3f 029f d689 8d97 b03f
00000660: 0b65 d0f7 358c e0bf 0b7c d78f 023b f1bf
00000670: 4718 fd47 ba68 f03f ba7b 98de fb83 e0bf
00000680: 5e5d 8193 2b68 e7bf 6296 d809 8910 f5bf
00000690: d0a5 7fdf 986c e6bf fb0c 0b91 d79c fe3f
000006a0: aeed 7fcf 8bc0 ebbf c501 d04c 6811 fcbf
000006b0: 25b6 ea51 e759 c53f fde0 00f6 1415 be3f
000006c0: 3ad9 4b98 f99d e53f 2611 900d c633 a63f
000006d0: 623a bfcd 049e f23f 2722 61b6 c24d e2bf
000006e0: 6fe3 3505 9dce e73f d510 d724 a9c0 b63f
000006f0: bf66 9019 a31a f3bf 5fd1 9dd0 ff2a e33f
00000700: 4caf 80c7 e240 e1bf 9fb4 0829 fd40 f93f
00000710: 80f1 31e4 b5a6 f2bf bf9f 2dc4 fcd4 a73f
00000720: 04a3 b972 4f7f e1bf b423 2e25 e9b7 e03f
00000730: c8e0 d6eb 84f2 0340 6ed9 7ca2 9e29 eb3f
00000740: 2e8e e33a fe40 f9bf 578c 660a 3a8c 05c0
00000750: 321d b82e 6400 a43f da7a ebc5 4d7d f03f
00000760: 70ba abe4 fea4 fcbf 4981 cf96 c7a8 eabf
00000770: 80b3 7d4c 9e4b bfbf c01e 7403 5e59 e7bf
00000780: eea6 9643 2d3c 05c0 3d75 f552 21b2 943f
00000790: cd00 e40d 7361 cabf f178 4e7a f9f4 a93f
000007a0: a9d7 5c86 9b91 0040 bd74 c59c e85c e93f
000007b0: c860 7837 871d c1bf 5e63 64a7 3c41 fc3f
000007c0: 4475 9bed 20cd e3bf f501 adce ef6b e53f
000007d0: 66af 1f78 5114 e5bf cf07 e117 52bc f1bf
000007e0: cbe3 1cd5 d445 e03f 126e 8092 b334 993f
000007f0: da64 8466 803a f63f 680f 40ad 4a81 e43f
0.205332660601279 1.4307057464513013 -1.0309467074126386 -0.09203502340374652 -1.2977796392159238 -0.21262413446408504 -0.7639122738019802 -1.9051268738465628
0.7506410474967704 0.32125445000373964 0.7547530789278398 -1.6813549024330319 -2.2703743266381258 -2.7293029923991443 -1.5707556920510437 0.2871157672926282
1.5109376913194525 -1.9323977768782912 -0.6037686001777142 0.4731481204681701 -4.834955010916964 -2.094933487856426 1.1656776343657953 -1.3628700155410427
-1.5936749411711466 -1.648991809266372 0.13037958512209175 -0.29733145960786844 -2.276914235874534 0.38602374035887227 -0.2152423022086685 -0.1835853346070781
6.403789997820613 1.9663824994274155 1.3849997299315961 -0.05864007295515393 1.2218266099524966 0.10234486218600118 -0.9684439532115157 0.45539011051141076
-0.3772884734230215 1.6818316794985058 1.1620041232038316 -0.03224654865894756 1.8377958020202219 2.2775173142216185 1.8230615350503696 1.119680337792992
-2.1217656759547467 2.4232366879057214 0.6683766566489282 0.41117561185466583 -1.996525933533188 -1.4450894199883886 -0.6054561388180328 0.5011901430995063
2.801067997240566 1.3096206330465476 -0.6492300700351714 1.4848768912257588 -1.6015930505990355 1.5827548565455019 1.2664800631134872 0.1445540314491941
3.3425660678561537 2.024566163064281 -0.7897242536256174 -3.728902854923626 1.7419468663157613 0.8210012035891275 0.27083370794789435 -1.3241137556219003
3.262044644247447 3.083132204287135 -0.8550912911939507 -0.14072414353784357 2.5887992012498953 -0.601866239022409 -0.5325063676660409 -1.3803717585236834
2.71914184099362 0.20176447708363363 -0.38197304328318255 -1.0451935665086403 1.8466847990466546 0.7290174463715013 -0.8187463045529604 0.7316061729638548
0.983862566450398 1.3059949081319426 0.40447224681684146 0.3397940327827599 -2.5372808597895844 -1.344705067740174 -1.3360070151330092 -0.9115879304305607
-0.6665933979548467 1.423129814674408 -0.6408960763586385 -0.8395911721858058 -1.5025032527702313 -0.9081149307365208 1.4171190734741832 0.660998729616108
-1.8148409850836627 -1.2595289756346641 2.3339297765886045 -0.0784772820679275 0.9838158956250301 -0.37116686709106467 0.9085509578035776 -0.8456517078424357
0.2699702027517712 -1.6441611143570436 0.5054233667032197 -0.8828624837470324 1.02650280316605 0.30574295327329093 -0.7485835795144659 -1.572605689411958
-1.6497906265366862 -1.798490526334943 1.0459937602025187 -0.6346897269731308 2.034675909717706 1.2907225292039854 -1.0008930310899915 -0.759562158152601
0.10205563117306458 0.2642236493202896 -1.5514192411890093 0.38277482763501575 0.008575019085206017 0.35116186035215385 0.4217776630500519 -0.9818743619502307
2.2517166011292202 0.14803148632376859 0.31236144732364024 -0.6393371048786113 0.40428725912844105 -1.3350470877736424 0.3652583762918971 0.07578844962763401
1.8965086978804104 1.4186415451471601 -0.08759169948366545 -0.02835805048253919 0.26919890022649 1.246331671760326 -0.08319300582490932 -0.7130307596097449
1.1188741165626603 1.3251043535413753 -0.6399900769100785 0.2188119558517054 -0.6937003068991966 -0.7839223571174327 1.6014715197379283 -0.8748452513890588
0.5815846438756238 -2.4058955296234203 -0.19196583010615556 0.44109942068878244 -0.6969217666154818 -1.6193964494045903 0.6909175063169355 0.9536260780539658
-0.9060384690797375 1.4622679641005907 0.9814528161320426 0.23794369791466513 0.5788906511809564 0.9302785423354668 -1.0498955962233214 -0.5345789426342876
1.0192441026024637 1.057041186379322 -1.4304780984715009 -0.3842597085430602 -0.8238031486739056 -0.08603871229850382 -1.4492335950041224 -1.5295049022695648
-2.145189387432722 -2.0266510423054798 -0.34735737742641914 1.1455205663728703 -0.1622488721780642 0.7741387594744952 0.8435012898974767 0.6759514512363672
-0.7667136094736473 -0.7247890223821908 1.176710732822692 1.1508040699177486 -0.7266922332630279 -1.0019928251861565 0.2695602773694591 0.7823668115178456
0.48888571462043534 -0.22026485268762602 0.9237905784225104 0.06481251349634579 -0.5171155777090076 -1.0769067400758583 1.0255682766014773 -0.5161113116808942
-0.7314660912478919 -1.3165369400607223 -0.7007564892966744 1.9132915178059295 -0.867254166863338 -1.7542498589028679 0.16680613994451324 0.11750918394034567
0.675534055188826 0.04336375155983978 1.1635787999145113 -0.5719922601793471 0.7439713575141534 0.08887726926247137 -1.194003200397148 0.5989989351788089
-0.5391706368004434 1.5783664324656355 -1.1657008088942291 0.046546839664017174 -0.5467908135152304 0.5224500394989406 2.493417589659746 0.8488305257404087
-1.5783674526545712 -2.6934700787110546 0.03906548567106895 1.0305917483562355 -1.7902821476415305 -0.8331029840010525 -0.12224759452301548 -0.7296590869381916
-2.654383209261929 0.02021076268043952 -0.20609892061475535 0.05069713228225393 2.071097421367956 0.792591386980028 -0.13371362885005156 1.7659269846683041
-0.6187901154295692 0.6694258724820076 -0.6587302538077722 -1.108476727750247 0.5085243379936569 0.024615102593186285 1.389282608468696 0.640782678965917

layers.3.conv.kernel.radii f8 [4]
00000000: 0000 0000 0000 0000 abaa aaaa aaaa ea3f
00000010: abaa aaaa aaaa fa3f 0000 0000 0000 0440
0.0 0.8333333333333334 1.6666666666666667 2.5

layers.3.act.bias f8 [15]
00000000: 1a68 e097 3484 0040 f87a 1708 25ff eb3f
00000010: 774c 9647 4c54 f63f 39ef 11f2 830a d03f
00000020: 5945 3459 505c e93f 84f4 de8c c202 f4bf
00000030: 3097 c61a 1b21 e73f 7a2b 33f0 432d b93f
00000040: 63f4 9daa 41bd f33f dbee 4304 c9af e9bf
00000050: df81 f529 5514 ea3f 47a1 87c9 dbb8 f03f
00000060: b364 3431 e045 d2bf 1d14 a653 9a63 e73f
00000070: 01c6 9452 5716 b33f
2.0645534386976694 0.8748955877343567 1.3955805584307919 0.25064180984167056 0.7925187818783953 -1.2506738188524489 0.722791244789482 0.09834694494490562
1.2337052025534596 -0.8027081569011573 0.8149820155631992 1.045131480432319 -0.2855148773683808 0.7309085496677913 0.0745596481908919

layers.4.kernel.weight f8 [120]
00000000: a3a5 a774 4f3f 0dc0 544e 3035 f50f 13c0
00000010: 6f73 ce46 617b 0cc0 0e2c 7a19 b7f0 d23f
00000020: 9dfc 5f6a 3fbc 1a40 b72f 6025 905e fd3f
00000030: 07e2 1678 1aa0 ae3f 4337 5968 f91f f5bf
00000040: 9891 3609 2027 1140 55dd 601f fc18 1140
00000050: c652 98c5 d914 f43f d762 dc14 2e61 fabf
00000060: 8955 767a 59b9 f9bf 3fe4 e9be 2291 b3bf
00000070: e5f0 6482 93dc e4bf ea92 0fd0 d6c5 04c0
00000080: 9478 263e b8f4 e33f 10e2 aeae 7320 ddbf
00000090: 896e b52f 85e0 f5bf c79f ad4d 3669 09c0
000000a0: f3f7 5fd8 9796 edbf c8c4 2f90 ab54 d43f
000000b0: 5fd2 0799 3976 03c0 9561 2e3a 7a70 fdbf
000000c0: 09c7 2e9a 3e07 0840 243d 7838 39b0 0c40
000000d0: 28c2 4273 a2cd dabf 7328 0f53 588f febf
000000e0: 67ed 9976 daa2 f9bf 15c6 1695 fb48 f0bf
000000f0: 5d64 a2b4 3574 db3f 3dad 6403 f946 f03f
00000100: 9cd7 4918 708c cdbf a364 2b0a 3a7b f0bf
00000110: 054f b639 b81c 05c0 06b9 dbe9 e4ca f7bf
00000120: 934e 4262 c00d f4bf ae41 e767 d4e5 f5bf
00000130: 3830 a2b1 5137 07c0 8485 a0d5 e055 f5bf
00000140: 4d73 3257 3e15 b7bf 7785 c2ec 2f6d e6bf
00000150: b5ec 4303 708e d7bf 40b6 def9 39b0 f2bf
00000160: 65aa 0bbb 1016 1940 a25b ee3e 62d2 f23f
00000170: 21bf a590 e3a8 f1bf 4132 fee7 59aa e9bf
00000180: f02e 0d6a 2881 1240 5041 3968 9a27 0440
00000190: 116f 7611 0491 f7bf a060 69da aedb e5bf
000001a0: 18cc 3479 9186 0640 1eda 308a 11f6 0740
000001b0: 8f3d d3e4 2f6b 0e40 eb44 859f 6a75 fe3f
000001c0: e9ee 4fd2 a245 f73f a08b b275 947a fa3f
000001d0: 1516 ffa9 7858 cdbf c436 b171 b549 e43f
000001e0: f286 55ea 524f 0ec0 10fa af82 0aa2 05c0
000001f0: eaa8 e247 1461 f43f 0cec 1042 0934 d33f
00000200: c2c5 0e1c 4ef2 c2bf 1184 4686 cd11 fd3f
00000210: 19a7 1af5 75a9 ff3f 3eb2 6a42 0739 c1bf
00000220: 583d cd48 66c8 0cc0 20ba f2bb 7e5a ed3f
00000230: e7b9 5ff8 1863 c43f 490c 0f77 c340 e0bf
00000240: 563e 99da 172d fb3f 057b cc68 5a71 0340
00000250: f867 f9b1 99c1 febf 5c9a 3f07 cbf1 01c0
00000260: 54c4 5a9e 5d1d f0bf c360 b282 60a7 fabf
00000270: b3cc 4e05 b978 f6bf b79e 19cc f37a f9bf
00000280: adfb 7b4d b741 1140 2f1d b0c1 38e9 0a40
00000290: 311d 1814 12da 0a40 c872 98d8 eb27 e53f
000002a0: 5155 97ac c048 f43f b0e0 d735 fabd dbbf
000002b0: 4335 b28b 350c f0bf dce4 3ac6 6cf5 f8bf
000002c0: e903 eda5 cb89 0540 d24d 838b 8b9d f03f
000002d0: 0ae9 eaff d0ef e2bf 5bd1 73d9 4d6b fa3f
000002e0: 6443 89b0 a812 f43f 6d0d e711 84ab eb3f
000002f0: 35d4 7f4c c6ad 0a40 fdbd abcd 0114 f03f
00000300: b46e 263b 9b57 1140 9437 b845 9c00 0a40
00000310: 9454 e961 c5e7 c8bf b00c 43c2 d0c0 05c0
00000320: 1d93 19b7 5640 efbf 8457 8f06 60c5 e3bf
00000330: 3713 f4ce 1e62 d83f 2812 3d93 97ca f2bf
00000340: 9c67 c656 046f f53f a105 1fbd b99e fe3f
00000350: 28ae 0dca 5a8e fb3f 2988 b95e 4136 f23f
00000360: 7c5c 70a3 109e 18c0 7b09 b1dc aef8 01c0
00000370: 1d5b 9523 156d f7bf ba4e 2d42 d9b5 ddbf
00000380: 62e7 4e8c 1be5 0a40 adf0 1003 a7cb f63f
00000390: e258 c7ae 66ad 0740 e7a0 da03 85e1 f1bf
000003a0: f318 8752 a78a e5bf fc0d 7596 261e f4bf
000003b0: e2f3 629d 2794 ffbf 7b27 7d80 2e13 eabf
-3.655913268438512 -4.765583830903399 -3.560244134116537 0.2959420918274994 6.683835661037986 1.8355866870869997 0.059815241965626646 -1.320306213008238
4.288208145099269 4.274399271285195 1.2550904959254452 -1.6487255873564004 -1.6077513488465647 -0.07643334542253032 -0.6519258066905677 -2.5966011290314457
0.623623010051022 -0.4551057058229455 -1.367314516412906 -3.176373106824005 -0.924632952315504 0.31766785698625855 -2.432727046538545 -1.8399603150083739
3.00353737311605 3.5860466396039943 -0.41880093818602626 -1.9099963421345165 -1.6022591240751696 -1.0178180526530742 0.42896788253853463 1.017327321295695
-0.2308483236881188 -1.0300846478697074 -2.639023257137412 -1.487034715184167 -1.253357299637092 -1.3686107691502047 -2.902011287462326 -1.3334663719946045
-0.09016790036043894 -0.7008285164085198 -0.3680686981094355 -1.1680240402742044 6.271548197352421 1.1763632257695709 -1.1037326479235576 -0.8020448237526311
4.6261307306810835 2.5193374769661787 -1.47290427037564 -0.6830667749263917 2.815707156108612 2.995150642028661 3.802337444016025 1.9036661368630188
1.4545009818384023 1.6549267385059707 -0.22926243115050285 0.6339976521064377 -3.7887323672629174 -2.704121609683405 1.2737009819052738 0.3000510354210639
-0.148019565296222 1.8168463940749044 1.9788722586039909 -0.13455286734587618 -3.597851341975609 0.9172967596876482 0.15927421691544838 -0.5079057050101109
1.6985090769775488 2.4303482234385023 -1.9222657158011298 -2.243063027027615 -1.0071693597531253 -1.665863523992855 -1.4044733245216718 -1.5925176594409274
4.314175806705788 3.3638777858610847 3.356479794488813 0.6611232023602378 1.2677618734208702 -0.4334702993214803 -1.0029807526473895 -1.5599181884156712
2.692282959266312 1.0384631585810564 -0.5917744635001168 1.6511972898707288 1.2545554061836919 0.8646869992884781 3.334850881243734 1.0048845323580047
4.335553096981744 3.2502980658382032 -0.19457309037048687 -2.71914817587966 -0.9766038490457479 -0.6178436401485077 0.3809887906102633 -1.17446095957815
1.3396037473344 1.913751353029831 1.7222545521461914 1.1382459354576986 -6.154360345585811 -2.2464272729422965 -1.4641314878442195 -0.4642241617450328
3.3618689500407735 1.4247198219082222 2.959668508013338 -1.1175584936664167 -0.6731754886502855 -1.2573610188709372 -1.9736705921088675 -0.8148415097759732

layers.4.kernel.radii f8 [4]
00000000: 0000 0000 0000 0000 abaa aaaa aaaa ea3f
00000010: abaa aaaa aaaa fa3f 0000 0000 0000 0440
0.0 0.8333333333333334 1.6666666666666667 2.5

layers.5.kernel.weight f8 [240]
00000000: 5bfd 5c1d 07c9 e33f b518 3301 f324 f93f
00000010: d11b 5d11 c0a2 e03f fc23 1497 9a23 e23f
00000020: 2b52 4b3d 5cc7 e83f 83ad b11b 7b6b f0bf
00000030: 61f9 2d76 1143 da3f cb4b dc09 bb6e f2bf
00000040: 2f9d 561e 0e58 fdbf 18a2 d60a b7e8 e83f
00000050: 25b5 48b3 cf0b f1bf 32cb 7b93 fad9 edbf
00000060: a3ab 1be5 8437 0040 d432 7ce0 7637 0440
00000070: 29cc 679b ec3e d4bf 4160 28c7 f313 e2bf
00000080: ac18 f605 4147 aabf 56f9 7b85 6c7c 07c0
00000090: 82b8 2799 9cb6 c53f a916 ab92 1de7 eabf
000000a0: b2d3 c280 2360 ebbf 17ab c91d 509e e73f
000000b0: 007a 3ce6 959f cbbf 1804 0988 140f 753f
000000c0: 1562 6f7a 165f f13f 660a ac9e 45b8 fd3f
000000d0: e155 02b1 aa99 fb3f eca1 1ca7 d885 fc3f
000000e0: fe96 aabd 988f 0e40 814c 8031 ee79 f23f
000000f0: 8991 fb75 f620 f3bf c6a3 218b 4a66 cebf
00000100: f897 0685 f5f1 d03f 577b 3a47 a154 cbbf
00000110: f8e7 6e59 0b6e cd3f c76a 9abd c888 d93f
00000120: e45b 7f8b 189d de3f 6653 8005 873a a1bf
00000130: f9a1 df59 efe3 e7bf 5fdd a805 e21c f3bf
00000140: 35f3 fe49 aa30 f53f f38a e4e5 991d c7bf
00000150: 563f 4b07 8a33 c4bf f1ff 3c3a 3bc6 fe3f
00000160: f11b 570a ff24 fe3f 7384 6a8d 72d6 f03f
00000170: 0496 bcd2 fe99 e03f b7bb 6659 e86f d7bf
00000180: 8263 e06e 6ebb fd3f 6f38 ffe2 cdd6 df3f
00000190: f877 b467 a675 e0bf 006e 2a83 ecd8 f63f
000001a0: c0ca e847 30ec 0040 5fd4 efc4 ce5b ea3f
000001b0: 8eb5 2dde 91e6 ecbf a370 eb73 c999 b03f
000001c0: 5d6b eee8 ed12 bcbf ab30 bebc 1378 05c0
000001d0: 5d1f 82f3 f8db f2bf f7ab ef70 27f3 f7bf
000001e0: ef18 d8c4 4ce8 f8bf fcf6 1dc7 82e7 09c0
000001f0: 1a53 18bd aa24 0e40 4915 d47a 7cd8 f43f
00000200: 996c 9ce1 6424 fbbf a3cb f7a1 a82b fa3f
00000210: fe65 43ce 04ac e9bf b685 0565 ba28 f1bf
00000220: ab09 7167 d83a ddbf 2404 42a7 4d30 c6bf
00000230: cc78 4653 2837 ee3f 1e53 93e6 9d11 d03f
00000240: 3dee 01e4 3a5e e03f 7232 c68c 8adf 1040
00000250: 704b 2866 95e2 00c0 748c 7119 1110 00c0
00000260: 6ecc 7de9 5d13 f93f 0733 7ce7 c43e efbf
00000270: 42d4 8396 e2c7 f9bf d272 8eb0 8ec6 bdbf
00000280: b928 a4a8 ae14 ee3f bd25 c476 0e0d f03f
00000290: 01c2 deef d0de f4bf f0cb a5e7 c6c2 e53f
000002a0: 51b1 e48c fa3d f4bf a1e3 29ca 48f6 08c0
000002b0: 79dd 5cc4 f553 0640 1e10 7913 0702 00c0
000002c0: 137a 9416 aa4a f0bf 012a 967a 8653 dc3f
000002d0: 4ccb 4a8a 8e37 bebf aaf4 974b b71d c03f
000002e0: 7133 bd03 a0a0 e53f 7d4f 5455 ea13 0c40
000002f0: d9fc 2472 33bb d6bf 36fb fb86 ba19 edbf
00000300: 0319 a641 8b02 e53f 8ae9 625f 6351 e63f
00000310: c64a ae95 aeae afbf b802 064d 1032 fa3f
00000320: f523 5153 7e4f e7bf dd2c 4dff 9cbf d33f
00000330: 7a5e c02d f977 e23f 8d48 1aff cdc7 cc3f
00000340: 3dc5 9d2a 3c82 f93f 80de b0cd 3fa6 e6bf
00000350: 8356 755b 540e e9bf baaa c410 09ae f9bf
00000360: d494 c0b9 dc4c a0bf 753d 2775 9dd4 e83f
00000370: 7c18 45a0 7eeb d3bf d3b2 2e64 cc48 903f
00000380: a9ae e016 1dd6 d1bf fb3d c0ad 6f57 c93f
00000390: c3f4 9d19 2302 e4bf 1466 2509 3d0e d7bf
000003a0: e0d7 1a86 245c c53f dc33 0fd5 da41 dabf
000003b0: e020 2389 6349 f43f 9d63 200e 99f0 f13f
000003c0: 508a b12f ccd0 f0bf af29 ce44 c54b d5bf
000003d0: e667 0a0a 8c44 0740 ccb5 9240 8ad9 a7bf
000003e0: e01a 9664 dc94 93bf 403f 5736 f72b babf
000003f0: cdbe c32f 2374 e03f a02f a161 5cec e7bf
00000400: 4318 64e1 4c4b eebf 59ae 3399 c44d d1bf
00000410: d273 48cf 7ca5 dc3f 2b3c de85 757b d0bf
00000420: e09b 810b f370 dabf 6b71 838d 2c6d 0240
00000430: 551d b225 78c9 00c0 b490 7759 39e0 e9bf
00000440: 1eee 7d58 555c fd3f 998c 9111 9ca5 d6bf
00000450: 54bd fb91 a471 e9bf f159 664d 0baa b0bf
00000460: 9bad 9cba 5416 d83f c986 19ca db4e f63f
00000470: d4c3 bcb0 a5a8 e4bf 542d 11da 7178 ce3f
00000480: bfc0 0935 5f05 0a40 2717 35ed 137b 0340
00000490: 6aef da79 3469 f23f a6ff fa69 7195 cfbf
000004a0: 062b 0a1f e88b ad3f 2e63 696c 4dc7 f43f
000004b0: cf2c 3f13 0b29 fc3f 966f 51f0 e72d e63f
000004c0: 7f36 d813 1af8 d93f aaf1 2d9e 428b ffbf
000004d0: 337d 53f8 af28 f0bf 7a39 c7b8 d318 f0bf
000004e0: 087e dc3f 816f f13f 7adb a2c3 ca73 0640
000004f0: 4ea3 5f9a 4d21 e03f 40bc 9ac9 1a1b efbf
00000500: d928 8774 62a0 f23f 2394 87c2 8f2b a2bf
00000510: 5427 7133 0f3a f2bf cd9e 96dd a426 f9bf
00000520: eb0f 8142 d6a3 e0bf 65c3 a77d 80ac ed3f
00000530: 8df9 0ab1 731a f13f 924d 3c34 36e6 e3bf
00000540: b9ed 9167 23e0 d3bf 3ca0 3f4c 279f 00c0
00000550: 5f0f bbdd f561 c03f 941c 25a5 b93d be3f
00000560: 2b60 0aae e29c e03f b5ac 6f70 de01 d73f
00000570: 096f 00cf 03b7 e0bf 0c8e 6df0 a420 e3bf
00000580: c35a 2a28 929e c5bf c6a9 d2aa 19ad d13f
00000590: 48d4 9597 1edc e13f ef3f 6d60 b603 cb3f
000005a0: 8059 d4a6 671c 0340 e88c ed7b bfec fdbf
000005b0: e0ed 4de9 4135 12c0 95ba 7b85 8b29 e93f
000005c0: 2a6a 46fd 4af1 e3bf 2c48 7233 7130 01c0
000005d0: 347c 88ac d244 b2bf 2675 4e3f e282 db3f
000005e0: 511c 2bf6 08c1 e73f b19c 9f1b 1203 ba3f
000005f0: dd26 f08c 2458 c6bf 8e0b e2a5 77d3 de3f
00000600: deed 0351 35dc fbbf 36f5 af33 2a31 03c0
00000610: 557d a25a 5ca6 e53f c255 46ef 000e be3f
00000620: ca78 b84d e489 c5bf bad1 51f6 d890 dcbf
00000630: 0ae4 7736 fff9 e5bf 0325 5eab ff72 cabf
00000640: 6202 42b4 af8e f1bf dfd0 a088 b981 fabf
00000650: e40f 9def 7f6d e53f 65d2 b225 40ba f5bf
00000660: 538c 1d35 3a28 f8bf 1cd3 cd77 5297 0040
00000670: 0d2b f24d c5a2 c8bf 373b 0b41 5fe2 f1bf
00000680: 58c1 d5e1 b737 d73f 0c02 ac93 a1b4 f53f
00000690: 78fe 4fe1 5838 f23f 7e97 1a40 cc5a f4bf
000006a0: 6cd9 1a17 d9f3 fd3f 8985 cc3f 3bd6 c23f
000006b0: 0aae 1c76 82a6 e73f a8eb 16b6 1e59 eebf
000006c0: fe54 5218 d318 edbf 3951 85c1 e797 0b40
000006d0: 494c 2812 6a48 febf ab0a f0dd 5727 f43f
000006e0: 8f82 4123 3dad f93f 45ac 9b23 a192 ebbf
000006f0: 57a1 1125 6313 ee3f 4361 910f d8a2 c4bf
00000700: 12fe 7980 c982 e83f ba9d 8891 7da3 e1bf
00000710: 3983 556d 2a53 e1bf 1c52 74d9 8f94 e13f
00000720: b79a 0503 5f96 0840 8150 58c9 60c6 cfbf
00000730: 75c2 d789 1878 0bc0 e0a2 7409 bc6b 0440
00000740: 7a71 d234 a71e db3f 2c51 522d 2ad2 f5bf
00000750: 1ca1 cc65 83a7 e8bf 0fb4 541d 6ba2 f0bf
00000760: ef46 5efa b763 f83f 2936 5a12 f29b f5bf
00000770: 83c1 65ca bf28 e43f 121f bcce 20b4 df3f
0.6182895253659056 1.5715208098277291 0.5198669757017972 0.5668461752658227 0.774335975375441 -1.026240451984308 0.41034351864791146 -1.1520338425805103
-1.8339978394595382 0.7784075938880646 -1.0653836253434943 -0.9328587418116057 2.027108945757804 2.527082208433379 -0.31634059120478014 -0.5649355783271021
-0.051324874856662234 -2.9357538631876805 0.16963536718634847 -0.8407123436561125 -0.8554856791366687 0.7380753118316957 -0.21580766431812037 0.005141334725125034
1.0857147963162153 1.8574882696272197 1.7250162996691574 1.7826773193174814 3.8201155488667373 1.1547681745185232 -1.1955475434016043 -0.23749667924428602
0.2647680090980198 -0.21352020242644684 0.2299207865415267 0.39897364154755305 0.47833837149431546 -0.033649653836767254 -0.7465740924208709 -1.1945514889792646
1.324381150289992 -0.18059085583907794 -0.15782285076283625 1.9233963274891688 1.8840322879711915 1.0523553394380343 0.5187982669783087 -0.36620529871555213
1.858259614097023 0.49748561065360425 -0.5143615746962942 1.4279599307691342 2.115326463500736 0.8237069937155289 -0.9031457271027408 0.0648466022498178
-0.10966383873748727 -2.6836313958684364 -1.178704215244543 -1.496863785893536 -1.5567138375495764 -3.2380424076098944 3.7679037831352504 1.3028530881868667
-1.6963852703982296 1.6356588675377928 -0.8022483852939215 -1.0724433847575319 -0.4567166338130401 -0.1733491007508131 0.9442330957861258 0.25107524411332516
0.5115026906273169 4.21830196342181 -2.1106365185782394 -2.0078451144959732 1.5672282334096752 -0.9764122506327063 -1.611300075482419 -0.11631099520168256
0.9400246900343269 1.0031876220040055 -1.3043984765937469 0.680026485859683 -1.2651315215726593 -3.1202560228379785 2.790996107181567 -2.000990059024857
-1.0182286150007982 0.44259798022599744 -0.1180352294566493 0.12590686026661518 0.675857550909866 3.5097242990831874 -0.3551758398716181 -0.909390700951781
0.6565605432704448 0.6974350798621327 -0.061879592677674775 1.6372225769738815 -0.7284537913593555 0.3085701459101083 0.5771451848585933 0.2248475547426704
1.5942956604670393 -0.7077940957451148 -0.7829992090507435 -1.6049891142853725 -0.031836412119710694 0.7759539878988294 -0.3112484517226972 0.015902703871392653
-0.2786934588827799 0.1979808424371042 -0.6252608776409477 -0.3602440442387842 0.16687447116936394 -0.4102694588335092 1.2679171902582809 1.121239714795798
-1.050975977232742 -0.3327496692587841 2.90847022861725 -0.0465815738510674 -0.01912254680567116 -0.10223336292915253 0.5141769345190937 -0.7476026446179169
-0.9466919328849673 -0.27037157975312237 0.4476005577324119 -0.25753534386689364 -0.4131438839307844 2.303307633947204 -2.098373693941236 -0.8086210963633875
1.8350423294749656 -0.35385801044157855 -0.7951224185216383 -0.06509466781276509 0.3763629743941352 1.3942525763053928 -0.6455868198300956 0.23805068157012477
3.252622999534736 2.43509660070676 1.1506848106355059 -0.24674813914134325 0.05770802859213657 1.2986578211623043 1.7600203277423139 0.6931037610734048
0.4057679361147634 -1.9714990786443232 -1.0099334430922908 -1.006061288633275 1.0897228712636906 2.8065390857768167 0.504065324316892 -0.9720586717211361
1.164156394183513 -0.03548859834317166 -1.1391746530011533 -1.5719345718188606 -0.5199996279629863 0.927307362957532 1.068957988332474 -0.6218520183778529
-0.3105553161073789 -2.077711673442563 0.12798951460546967 0.11812935144290498 0.5191510581235027 0.35948906879520887 -0.5223406832696763 -0.5977348991258977
-0.16890170060351836 0.2761902015869534 0.5581200562143147 0.21105079372728094 2.388869574885746 -1.8702998009619538 -4.5520092443289 0.7863214118095408
-0.6232047030237642 -2.14865341370116 -0.07136265480265608 0.4298635118701263 0.7423138435341433 0.10160935568238717 -0.17456490403883765 0.4816569442702353
-1.7412617840444606 -2.399006274993236 0.6765577097138854 0.11740117875736814 -0.168270624112614 -0.44634079031609597 -0.6867672027430001 -0.20663448207441357
-1.0973355332681867 -1.6566710793531951 0.6696166686965594 -1.3579713318441915 -1.5098211359807194 2.0738877639472673 -0.19246736818271196 -1.117766622617365
0.36277577451894194 1.356599404185661 1.138756637694227 -1.272167444616087 1.8720332052740458 0.14716282477551726 0.7390758807063673 -0.9483789020954321
-0.9092803454429086 3.4491725081262783 -1.8926792821191774 1.2596052808227494 1.6047946335967571 -0.8616491027327206 0.9398666118623095 -0.16121960411215683
0.7659652241999899 -0.5512073366598351 -0.5414020667486518 0.5493849990039652 3.073423408134967 -0.2482415183191087 -3.43364055337616 2.552604745742755
0.423745919784572 -1.3638097544072236 -0.770448397471259 -1.0396529336678701 1.524345376969389 -1.3505726544275467 0.6299742653919086 0.49536915005636317

layers.5.kernel.radii f8 [4]
00000000: 0000 0000 0000 0000 abaa aaaa aaaa ea3f
00000010: abaa aaaa aaaa fa3f 0000 0000 0000 0440
0.0 0.8333333333333334 1.6666666666666667 2.5
