examples/revised_batch_pth/missing_point_24c_epoch_499.pth (torch_old, 324232 bytes, 19 tensors)

layers.0.weight f8 [24, 5]
-0.4655163129160685 0.6572127175928053 -0.7877001459359853 -0.21894799201724613 0.25570986744758945 0.47926834407335167 -0.4779703084995848 -0.5448177832786555
0.4706759522998737 0.7034620908358408 0.11491133095090203 -0.6438493609988346 -1.125979547951262 -0.9829025374366881 -0.10631623526161862 -0.09407574362954162
-0.2949001960541308 0.11969365051458696 -0.8726325351546019 -0.09850582785318746 0.6405313340821833 -1.586594930442534 0.16949596981580872 1.0551694697034604
1.339728106770206 0.30326841178350405 -0.37544064621289963 -0.17432626960962255 -0.6181025701424139 -0.34025062532835065 -0.3864356282913369 0.9914307537748327
-0.5510856834504161 -0.2028666618355043 -0.12131985036352688 -0.7049111795478941 0.4729790654916007 -0.7722056325473315 -1.1425566765275788 0.48620566280085015
-0.9721910996722473 0.8097355916100882 1.3494856405759073 1.4144228548954718 1.2717975121084149 0.5083863234372452 -0.6962711496120237 0.16940760518804301
-0.8586865768761217 -0.9979688553060866 -0.01349212906279984 0.059496244389237736 0.6903568880785914 -0.7876512082887613 0.009592832503848315 -0.8091453115371061
-1.2762485581472913 -0.4914619527974524 -0.6251083240208883 -0.7902768836049642 -0.42033053992414937 -0.8117121423653603 0.9378114529993071 0.9833728591312791
-0.25663525201152865 0.7583962175086446 -0.40970506257750294 0.9585927670420942 0.42325893649879126 1.5752410112591324 0.035308474906349085 -0.9594925585018658
0.20650864292934112 1.198153512466371 -0.6313050795565331 0.9652628871725003 -0.609553478245707 -0.668322262059222 -0.15142421506513137 1.8872639884496196
0.9910250897203532 -1.08525546678519 -0.33199310829803536 -0.7523129473327557 0.2730814593692502 0.625218961120902 0.8758294841199306 -0.926759214446131
-0.1008386990804315 -1.0633408401582294 -0.09661240871757085 0.36755456340606346 -0.6359670722600974 -1.2799152839538257 0.42389332762570886 -1.0771438901632555
0.9864056468063407 0.474172656398772 -0.42969849382955594 -0.6695031797522192 -0.4247632057598277 0.4385471353343692 -1.2472841352689605 -0.011512804772796629
-0.07906900806993013 -0.449329563879106 0.0565400862294281 0.061596934740491334 -0.05879010894802988 0.29121114335930653 0.3475278244807909 0.036538606533185296
-1.0556531631893349 -0.7217553211632994 0.26557064780818296 -0.1389781511266655 0.14863016894287925 -0.010888276855019755 -0.22640333372084281 -1.3758967426953304
00000000: 35a8 eeee 04cb ddbf ba71 12f7 e207 e53f
00000010: f92e bbef d634 e9bf a095 9ee0 7c06 ccbf
00000020: cbeb 7ceb 8c5d d03f 5566 f321 55ac de3f
00000030: 6cbe ddc6 1097 debf d9c0 2eb4 256f e1bf
00000040: 3210 8907 8e1f de3f f5b3 43ee c282 e63f
00000050: a2bb 5f38 d46a bd3f b74b a1f9 699a e4bf
00000060: 07a6 6621 0304 f2bf 8f45 ae05 f073 efbf
00000070: ba84 7b71 8a37 bbbf df5a 3c12 5915 b8bf
00000080: 17bc 6812 a5df d2bf c3be 7f3a 3ea4 be3f
00000090: 4944 fd10 9bec ebbf d447 188d ad37 b9bf
000000a0: 7f47 7e91 3b7f e43f 5200 a45d b162 f9bf
000000b0: 68d3 943f 0bb2 c53f 0cd3 c161 f9e1 f03f
000000c0: b0c2 41bd 866f f53f dc47 a1e9 bf68 d33f
000000d0: 64b4 4434 3807 d8bf 064c 67bd 5250 c6bf
000000e0: 12ba 8a0a 7fc7 e3bf e9a4 0e8f aac6 d5bf
000000f0: f14f 6180 5cbb d8bf e5c4 f6fc ccb9 ef3f
00000100: bad3 7671 7ea2 e1bf 8d1e 04e7 88f7 c9bf
00000110: 00be aa55 d10e bfbf 91c6 d7e3 a18e e6bf
00000120: 09a9 7efc 4945 de3f 317d 3296 e8b5 e8bf
00000130: cc32 7882 e947 f2bf 9704 375b fe1d df3f
00000140: 1bbf 5182 301c efbf dbeb 8b9d 5ae9 e93f
00000150: 431f 4b41 7e97 f53f 28db 07dc 79a1 f63f
00000160: a53c 1a59 4859 f43f 54b1 1c65 b344 e03f
00000170: 426c 176f da47 e6bf 35f8 fcfd 25af c53f
00000180: e94e a645 5c7a ebbf 18eb 7e61 5cef efbf
00000190: 0006 a0e8 c2a1 8bbf 61f0 c5af 4a76 ae3f
000001a0: 4fb5 1b54 6717 e63f e529 884e 7034 e9bf
000001b0: 6d4f 0a2f 68a5 833f 6e6f 58b5 84e4 e9bf
000001c0: d2f4 ac9b 836b f4bf 1c93 9fd5 1c74 dfbf
000001d0: 1811 042c e300 e4bf a3c7 3bbf f249 e9bf
000001e0: dafd 9e10 b2e6 dabf cf35 27be 8bf9 e9bf
000001f0: ce47 0e2a 8d02 ee3f 80c5 b75b ca77 ef3f
00000200: 97f9 9843 b66c d0bf eb82 f324 c844 e83f
00000210: 20aa 3195 9b38 dabf 1818 14bd caac ee3f
00000220: 9321 80a6 ac16 db3f a8d0 2aeb 2f34 f93f
00000230: c822 fdd1 f313 a23f 0dab f0bc 29b4 eebf
00000240: bc86 dc0d e06e ca3f e716 7a04 a32b f33f
00000250: c0ce cfb5 a633 e4bf 8359 8efe 6ee3 ee3f
00000260: b84e c74b 7681 e3bf 8e75 575e e562 e5bf
00000270: 9c7b c361 de61 c3bf 47f4 54b9 3b32 fe3f
00000280: 06a9 bb3f 7ab6 ef3f 975c 1ad6 345d f1bf
00000290: f3cb a805 603f d5bf 8cd9 249a f212 e8bf
000002a0: eaa1 48a8 2a7a d13f ce4e db31 cb01 e43f
000002b0: 6a5d e58d cb06 ec3f 5202 aaf0 02a8 edbf
000002c0: 4ebd b8a2 90d0 b9bf 30b1 4faf 7103 f1bf
000002d0: a26a d43f 97bb b8bf 43c6 5493 0386 d73f
000002e0: 6014 169e d759 e4bf 3cb7 e372 887a f4bf
000002f0: 3848 c97a 1121 db3f fc65 553b fb3b f1bf
00000300: 4aef 3393 a290 ef3f 8ff8 f844 d858 de3f
00000310: 8edb 881c 2e80 dbbf 4152 b3ee 916c e5bf
00000320: c515 5203 522f dbbf 9eff 0001 2811 dc3f
00000330: 16cc 9c35 e0f4 f3bf 150a e07f 0694 87bf
00000340: 419a c9d3 dd3d b4bf 2526 7fc9 d0c1 dcbf
00000350: 836d 897a d2f2 ac3f 310f 7d28 a289 af3f
00000360: 4727 85b6 bc19 aebf 1460 3d10 34a3 d23f
00000370: e414 2658 e53d d63f 4ff0 3330 30b5 a23f
00000380: 0613 3d92 f4e3 f0bf f887 839d 9e18 e7bf
00000390: 8846 c707 1cff d03f 1a4a f93a 09ca c1bf
000003a0: e780 6739 5006 c33f e24e 04c8 974c 86bf
000003b0: 8ea8 04d1 c8fa ccbf 39ca 884d ac03 f6bf

layers.0.bias f8 [24]
0.166395747621494 -0.26548990035768993 -1.1697644519991264 -0.6529708769643479 -0.2500509135300519 -0.6877628286574612 0.43879902123620684 -0.25527346268285966
0.3662776627340513 -0.2156558582016087 -0.0803033788325797 -1.2829558286105402 -0.1804788953672195 0.7600646417163953 -0.33058973670955966 -0.20844301584472436
-0.5105754125962211 -0.13236555933768085 -0.4048955231900791 0.13900153875813478 0.07170102978033402 -0.5424703743156409 -0.374848262199912 -0.2776672156999429
00000000: 1c28 1db3 744c c53f ca17 dd59 c9fd d0bf
00000010: f6c0 15ee 5ab7 f2bf 8eac 392e 23e5 e4bf
00000020: 6793 fc8b d500 d0bf b99f 0f31 2702 e6bf
00000030: fe7b 6e7d 4815 dc3f 9c9c 7081 6656 d0bf
00000040: 27ad acdd 1771 d73f 2c57 1575 9c9a cbbf
00000050: 5b1f d821 c38e b4bf 8384 e1b0 fc86 f4bf
00000060: 8436 9cb4 ee19 c7bf 6f92 6015 7352 e83f
00000070: 4de4 e3da 6128 d5bf 58fc 10c0 42ae cabf
00000080: 5dc2 673f a256 e0bf 566d 3cca 5af1 c0bf
00000090: 197c 99e9 cee9 d9bf aba9 876b cdca c13f
000000a0: 92fd fea9 ff5a b23f 7c81 97d4 ea5b e1bf
000000b0: 871b c790 83fd d7bf 8891 a6b6 4cc5 d1bf

layers.2.conv.kernel.weight f8 [4608]
-0.18623221691475786 -2.4492129348252063 0.7426798791890993 0.7633795197773127 -3.8236488523102827 0.8389040621734227 0.6310288085010306 -0.627357904077517
0.5240267871452611 0.6412052784225466 -1.041254114139816 0.2886128119454449 0.31495360537813216 -1.0536148212456962 0.7896157967040053 0.6269529627264898
-2.491684797477372 2.8331194554155537 -0.7866212742275134 1.1402800715827102 -0.9076916100713542 1.0581338790130885 -0.73485768256572 -1.0494025476411526
2.0312539674040306 -2.623387437641597 -0.6436121170116423 0.17302412094238706 -0.004205548459734571 -0.9916615841821119 -0.7524706065220826 -0.6939641405356322
2.1913299870441922 -4.895829014046047 -1.67935870627552 -1.712324717287565 -0.8143222876820689 3.591099295209752 -1.3542587424563075 1.225999318257352
3.148046641374458 0.758444622813164 -1.4886103660262453 0.6397723893681194 -0.6064780270198791 1.1045745655698147 -0.23410138626228089 -0.599909890744419
1.7954421038921298 -0.319670342497003 -0.4530772132795638 1.406240949513366 -0.5389229837560504 1.8558927682399604 1.0600544675913826 -0.05151760457225939
-1.0995262378896156 -0.49146880399895965 -1.9035653253203233 -1.4268689805285628 -3.018563394788943 2.5411930477583837 0.8926619646533286 1.489218693972124
-1.9009419364322924 2.7646779373677433 0.8344918565821073 2.4147417560157436 0.5736593310042888 -0.6169653253130188 0.029271393426388088 1.1912466297741782
0.27636106514841036 0.24162873645472113 -0.8843316949997314 0.26724744484511037 5.311614176065343 -4.4764282575304755 0.3106910694846832 0.854542473764078
2.357659468319024 -0.9554593718813603 0.9983563149729456 -1.3552934140279236 0.10541562277741352 0.7322182514510835 0.10445802558164693 0.6578829244641475
-0.9158605877959314 0.9968084724259837 0.4157773665580425 0.5358562033393292 1.4519687149953049 -1.4535791218485496 0.7792864115510374 -1.5964654092821404
-1.1289185400683803 0.7223380322688825 -0.04998975802719346 0.3597378293686058 2.1810175937524097 1.1394995304057052 -0.7415812683982662 -0.808930584848055
-0.46050230891591887 -3.1017573225522206 -0.019884698137905606 0.8232552618195998 0.43933699936206155 0.5838879533980926 -1.1298813009766757 0.9262322483532716
4.28711664604106 -1.4698953177152592 0.7484954530744511 -1.5897470943713674 1.946931811585245 -1.6696144168462628 -0.5250236030107868 0.4163164403593054
-1.453454656393104 2.5183036737233215 -1.5585704136719651 1.131364983024612 -2.8513523444493094 -0.2635836266673827 -0.2533513089316145 1.3663938884964348
0.4681673222936273 5.0742526161697565 -0.8915147292677718 0.014656379039585391 -0.16119830101667232 -2.7752239116736432 1.2335264403584596 -0.42957947993939194
-1.5605958113285563 -0.2869994235068958 -0.25840472476575993 3.279082256310032 1.28179858431381 -2.696359241051814 -1.3368166866804136 1.207152847191999
0.45539576410780186 -1.341494938730085 -0.8393917680703434 0.959812691440612 -1.1321365866629294 0.6475877052396063 -0.5170040545433143 -0.7105909671399112
-0.221324493557778 -2.5653132591456345 0.21946498095133557 -1.9829154109179774 3.5730990846845168 -0.20681053440393557 0.21130714688366392 0.25405527472609246
0.09835252305841022 -1.6799098700274842 0.18582026897792425 -1.5488183659263333 -1.1145966390661617 -1.2235292297619011 0.5331418066508358 0.17045597569777607
-0.7272211208966405 -0.954061446293755 1.0469002685705906 -0.585074251804367 -2.9607140229364393 3.052081135998994 -1.423573494416587 2.2717588274586724
0.7421818457049776 1.8497983382650254 0.6180319667284406 -2.418956388676457 1.5711869984375715 -1.6007999901247325 -0.21058829897474068 -1.5965828744298725
1.0357317120544167 -2.1886612787984063 -0.9750534325365295 1.845011331043722 -1.07541070636146 -1.6191932150046846 -1.6788326951920631 0.44011234243661584
2.457027345858605 -2.6174557918006203 0.014803536928040715 -0.7527849414097088 -3.5376151256379766 -0.3475444935954808 0.25858231049721475 -0.08517680712522867
-1.8248865618209018 0.917970249832948 -0.25734280202765036 1.3742591691249164 -2.1751417959102506 0.5604972036570146 0.38601829192266424 0.07670338006269177
-1.6478858908493377 0.029128414203907767 -0.16264672769074995 0.12652217133437002 -1.0633055088681234 0.1420885040262912 0.9542659343931523 0.3280999550141839
2.7719765159242544 -1.2098872532565499 1.2562107368710764 0.7087519136947728 0.792692193808743 -0.4941327342486455 0.46436075596524773 0.031461647017566784
1.4171748695281885 -0.9975037671708247 1.2039043705134171 -1.6740217906542025 -3.467084670206207 1.5132669742766032 -0.8809877557946698 2.8498577657259943
1.6648179139216495 0.3361772303310195 -0.47372171614839004 -0.20139295597400836 -2.201583658106272 1.2198979957243643 -1.1927812200934766 0.1356436652581547
-1.2233672817030565 1.7086488907417305 -0.22447885741815277 0.008201240895087286 -0.2959839867860832 -0.67797508791513 0.15109211475946774 1.7594094965928955
-0.7167562135924391 0.5517350108636483 2.044736262614189 -1.6973619708654042 -2.2081418837024764 3.353573273843088 1.2132984026776688 1.0191108421425337
00000000: a723 8e10 75d6 c7bf 931d 80f3 fc97 03c0
00000010: 1176 1098 08c4 e73f db26 fce2 9a6d e83f
00000020: 1b7c a035 d596 0ec0 5c86 f054 4dd8 ea3f
00000030: 9310 eb53 6331 e43f 22cd 1ce2 5013 e4bf
00000040: 088a 20d3 d3c4 e03f 001e 9bee c084 e43f
00000050: 37e5 f012 faa8 f0bf 43c9 20df a178 d23f
00000060: b9ce b62a 3328 d43f 654c fd36 9bdb f0bf
00000070: 3ff5 e758 8844 e93f 704c e1a8 ff0f e43f
00000080: 77d8 6870 f8ee 03c0 7b5e 7588 3aaa 0640
00000090: fca3 e460 002c e9bf 08a7 fb50 963e f23f
000000a0: 8985 8346 cf0b edbf d369 52ca 1dee f03f
000000b0: 16b1 3a42 f483 e7bf 4853 6753 5aca f0bf
000000c0: e9f6 7e14 0240 0040 6043 8b8d b2fc 04c0
000000d0: 81fa 3b70 7898 e4bf 10f0 6e86 a725 c63f
000000e0: 2d75 8a51 d639 71bf 0660 1813 b1bb efbf
000000f0: 0dd6 c63c 3d14 e8bf 2f50 0649 f434 e6bf
00000100: 91ca 2804 d887 0140 f48a 7833 5495 13c0
00000110: b64c 1b3c a7de fabf e01e 4e9a ae65 fbbf
00000120: cff2 3f9d ed0e eabf 91ea 6c44 92ba 0c40
00000130: 37c0 1237 0bab f5bf 8556 0d76 b19d f33f
00000140: 33e3 d713 332f 0940 34e8 59a8 2d45 e83f
00000150: e81b 691a 59d1 f7bf 0509 27f2 0379 e43f
00000160: 2260 799b 4468 e3bf 29da 3161 56ac f13f
00000170: e6ed f8c2 08f7 cdbf 316a 293a 7632 e3bf
00000180: 0740 e17f 21ba fc3f d6a5 a198 7a75 d4bf
00000190: 894e 6691 37ff dcbf 584b 8782 f67f f63f
000001a0: 7170 c969 db3e e1bf 9c93 879d bcb1 fd3f
000001b0: f489 64ac fbf5 f03f feba 9cf5 8360 aabf
000001c0: ec46 0dd3 a897 f1bf 4881 0b92 3974 dfbf
000001d0: 65ce 20ea 0075 febf abc0 7091 74d4 f6bf
000001e0: 842b ac90 0426 08c0 008f 4705 5d54 0440
000001f0: 8336 12d3 af90 ec3f d23b 33fb d6d3 f73f
00000200: 4d25 8917 426a febf d0bc 6777 0f1e 0640
00000210: 188d 1944 28b4 ea3f 60fc 3220 6451 0340
00000220: 56ad 36d0 6a5b e23f 8988 df10 2ebe e3bf
00000230: 2514 e6f5 51f9 9d3f e49a 45a0 580f f33f
00000240: 39cf 2c52 e6af d13f ef64 6cc0 b0ed ce3f
00000250: 0be2 9afb 714c ecbf f127 e306 951a d13f
00000260: bbae 5cc9 173f 1540 44ef 23cf dce7 11c0
00000270: 8124 a6cb 5ce2 d33f 4782 3b75 6958 eb3f
00000280: 9747 3c91 7cdc 0240 7d63 5c88 1f93 eebf
00000290: 470b 52f1 88f2 ef3f f4be 9b25 48af f5bf
000002a0: c503 51ac 84fc ba3f e088 70f8 546e e73f
000002b0: 2e8b addb c2bd ba3f 8673 a57d 600d e53f
000002c0: 70ec 08dd ba4e edbf 0b40 aee1 dae5 ef3f
000002d0: b929 f2ab 189c da3f c76f 96e8 bb25 e13f
000002e0: 0985 1b8c 433b f73f 85ce 672e dc41 f7bf
000002f0: 5e86 7a0e eaef e83f 26fe 2050 1f8b f9bf
00000300: 7211 17e3 0c10 f2bf 190f 28a6 641d e73f
00000310: 3737 b9ef 4198 a9bf 916b 11d1 f105 d73f
00000320: 7456 295a b972 0140 d565 0edc 633b f23f
00000330: 9718 e3a3 08bb e7bf 7402 d564 c2e2 e9bf
00000340: e5af 21ad de78 ddbf 28ec a324 66d0 08c0
00000350: 9fc5 c580 a75c 94bf 9ccd 386b 1b58 ea3f
00000360: 71b3 0bef 181e dc3f 17f1 0bca 35af e23f
00000370: 78e8 406a fe13 f2bf f5b0 e5cf b1a3 ed3f
00000380: c488 f3e7 0126 1140 ce16 e2f3 b084 f7bf
00000390: 611a 85bc acf3 e73f dbc6 33a6 9a6f f9bf
000003a0: 82cf a4f8 a126 ff3f 958e 549b bdb6 fabf
000003b0: bde6 914c fecc e0bf ac57 08b6 eda4 da3f
000003c0: 37d6 76ab 5941 f7bf 7b4e 8065 7c25 0440
000003d0: 9ebf b387 e7ef f8bf 86e2 1e2b 121a f23f
000003e0: fe42 66d1 91cf 06c0 f309 13dc 8dde d0bf
000003f0: 1aa5 9068 e836 d0bf 4bbe 88d6 bfdc f53f
00000400: 3ba6 9312 74f6 dd3f be5d b8e0 084c 1440
00000410: 9b6f c3e5 4987 ecbf c2ee 38e5 2904 8e3f
00000420: 94c8 845b 25a2 c4bf 53b9 1d98 a833 06c0
00000430: 3d74 8138 86bc f33f 04d5 57ee 3a7e dbbf
00000440: 4be4 3e50 33f8 f8bf ccb5 7bd4 325e d2bf
00000450: 700d 80f8 b389 d0bf bdf6 5d7a 8f3b 0a40
00000460: 98fd 7a3b 3f82 f43f ebad 34cb 2492 05c0
00000470: 9ca1 e0e4 9963 f5bf 2068 ff80 7f50 f33f
00000480: bb1d 6546 3425 dd3f 1986 9965 c376 f5bf
00000490: 8999 0c20 4cdc eabf cabd 001b c9b6 ee3f
000004a0: 5a28 e540 3b1d f2bf 2b77 e9d9 09b9 e43f
000004b0: c436 4516 4c8b e0bf a15d 9644 29bd e6bf
000004c0: a634 d16a 5c54 ccbf 9434 40f5 c285 04c0
000004d0: dfd0 e6b1 6d17 cc3f a908 8a82 05ba ffbf
000004e0: 45b3 10f9 b495 0c40 0bd9 dd80 c478 cabf
000004f0: 3c61 a3d2 1c0c cb3f 8cca 140e 7142 d03f
00000500: 46d4 0386 a12d b93f 34ee ff2b e9e0 fabf
00000510: 88d8 1865 f5c8 c73f 6f90 51c4 f5c7 f8bf
00000520: b554 1049 63d5 f1bf 6070 b862 9393 f3bf
00000530: 2243 f667 7f0f e13f d5cd 835c 80d1 c53f
00000540: e1c4 663a 6545 e7bf af98 c6de ab87 eebf
00000550: e8f2 fa7e 1ac0 f03f d667 27a3 edb8 e2bf
00000560: 9790 6ad5 8aaf 07c0 6bd5 be83 a96a 0840
00000570: 008c 1f00 f5c6 f6bf a8ac 62e4 8f2c 0240
00000580: 089c 5f24 f4bf e73f e3b1 7024 c698 fd3f
00000590: 1866 9ff9 eac6 e33f 7286 9ece 055a 03c0
000005a0: 4f09 63fa 9423 f93f 975d 5073 e09c f9bf
000005b0: e625 82b0 8ef4 cabf c97a f07b 9a8b f9bf
000005c0: cd42 6b6a 5b92 f03f 80af 33d8 6082 01c0
000005d0: 1b1a 9341 a333 efbf c150 f999 2a85 fd3f
000005e0: a173 59db e134 f1bf 7d9a 0525 37e8 f9bf
000005f0: 1de3 14ac 7fdc fabf ad32 55f5 cc2a dc3f
00000600: 1eb9 fef3 fda7 0340 5a13 84a9 8cf0 04c0
00000610: c5bc c417 5151 8e3f cad4 0872 d016 e8bf
00000620: af99 b328 094d 0cc0 2c70 7942 2b3e d6bf
00000630: c937 bad1 9c8c d03f c705 fbb0 25ce b5bf
00000640: f7e3 5e40 bc32 fdbf 8378 3725 0360 ed3f
00000650: f676 a4f1 4d78 d0bf 15ea b92e f7fc f53f
00000660: 22c7 ecbd b066 01c0 409a e6d4 97ef e13f
00000670: c8cc dd10 86b4 d83f c3a6 dc2c d5a2 b33f
00000680: bfcd 8b98 bd5d fabf 1f7d 8fc9 d6d3 9d3f
00000690: 20d9 1da4 9bd1 c4bf b7cd 0ce6 e031 c03f
000006a0: 74ec 23a3 4c03 f1bf 221a f7c2 f42f c23f
000006b0: 9ef9 7cb6 5889 ee3f 2cb8 26f4 96ff d43f
000006c0: c765 0906 022d 0640 af58 89bc b25b f3bf
000006d0: e4ec fb6d 7019 f43f a17c 497e 18ae e63f
000006e0: 587f 0605 bc5d e93f 91c8 5ee7 de9f dfbf
000006f0: 2ea9 1a2d 16b8 dd3f fb98 09b2 bd1b a03f
00000700: dd62 558e bfac f63f f055 3405 8deb efbf
00000710: 91dd ad3a 3143 f33f 256b ba12 cbc8 fabf
00000720: 24fd 37e3 96bc 0bc0 7c28 4a6e 5736 f83f
00000730: b910 ea3b 0d31 ecbf b35b 703a 82cc 0640
00000740: 336a e11b 18a3 fa3f 239f 7b80 ed83 d53f
00000750: 05ca 90e3 7451 debf 16cd c68f 3ec7 c9bf
00000760: becb 97e4 d79c 01c0 3679 c1c2 b384 f33f
00000770: f359 b9c2 a115 f3bf 8ebf 1889 c55c c13f
00000780: a693 1e92 e992 f3bf 8d51 2138 a056 fb3f
00000790: 9c90 a023 b9bb ccbf 63b9 72eb cfcb 803f
000007a0: f8b2 d8d1 66f1 d2bf 8524 c3cf f8b1 e5bf
000007b0: 79a6 c985 fc56 c33f 8436 8292 8a26 fc3f
000007c0: b9b2 12ba aaef e6bf 5ef6 762e d0a7 e13f
000007d0: 55fc 86af 9e5b 0040 cd74 a506 6528 fbbf
000007e0: 9570 bb4a 46aa 01c0 6d2a 7f39 1ed4 0a40
000007f0: 4fa2 fc95 ab69 f33f eb04 a02b 474e f03f

layers.2.conv.kernel.radii f8 [4]
0.0 0.8333333333333334 1.6666666666666667 2.5
00000000: 0000 0000 0000 0000 abaa aaaa aaaa ea3f
00000010: abaa aaaa aaaa fa3f 0000 0000 0000 0440

layers.2.conv.kernel.fvar f8 [4608]
0.07216878364870323 0.07216878364870323 0.07216878364870323 0.07216878364870323 0.07216878364870323 0.07216878364870323 0.07216878364870323 0.07216878364870323
0.07216878364870323 0.07216878364870323 0.07216878364870323 0.07216878364870323 0.07216878364870323 0.07216878364870323 0.07216878364870323 0.07216878364870323
0.07216878364870323 0.07216878364870323 0.07216878364870323 0.07216878364870323 0.07216878364870323 0.07216878364870323 0.07216878364870323 0.07216878364870323
0.07216878364870323 0.07216878364870323 0.07216878364870323 0.07216878364870323 0.07216878364870323 0.07216878364870323 0.07216878364870323 0.07216878364870323
0.07216878364870323 0.07216878364870323 0.07216878364870323 0.07216878364870323 0.07216878364870323 0.07216878364870323 0.07216878364870323 0.07216878364870323
0.07216878364870323 0.07216878364870323 0.07216878364870323 0.07216878364870323 0.07216878364870323 0.07216878364870323 0.07216878364870323 0.07216878364870323
0.07216878364870323 0.07216878364870323 0.07216878364870323 0.07216878364870323 0.07216878364870323 0.07216878364870323 0.07216878364870323 0.07216878364870323
0.07216878364870323 0.07216878364870323 0.07216878364870323 0.07216878364870323 0.07216878364870323 0.07216878364870323 0.07216878364870323 0.07216878364870323
0.07216878364870323 0.07216878364870323 0.07216878364870323 0.07216878364870323 0.07216878364870323 0.07216878364870323 0.07216878364870323 0.07216878364870323
0.07216878364870323 0.07216878364870323 0.07216878364870323 0.07216878364870323 0.07216878364870323 0.07216878364870323 0.07216878364870323 0.07216878364870323
0.07216878364870323 0.07216878364870323 0.07216878364870323 0.07216878364870323 0.07216878364870323 0.07216878364870323 0.07216878364870323 0.07216878364870323
0.07216878364870323 0.07216878364870323 0.07216878364870323 0.07216878364870323 0.07216878364870323 0.07216878364870323 0.07216878364870323 0.07216878364870323
0.07216878364870323 0.07216878364870323 0.07216878364870323 0.07216878364870323 0.07216878364870323 0.07216878364870323 0.07216878364870323 0.07216878364870323
0.07216878364870323 0.07216878364870323 0.07216878364870323 0.07216878364870323 0.07216878364870323 0.07216878364870323 0.07216878364870323 0.07216878364870323
0.07216878364870323 0.07216878364870323 0.07216878364870323 0.07216878364870323 0.07216878364870323 0.07216878364870323 0.07216878364870323 0.07216878364870323
0.07216878364870323 0.07216878364870323 0.07216878364870323 0.07216878364870323 0.07216878364870323 0.07216878364870323 0.07216878364870323 0.07216878364870323
0.07216878364870323 0.07216878364870323 0.07216878364870323 0.07216878364870323 0.07216878364870323 0.07216878364870323 0.07216878364870323 0.07216878364870323
0.07216878364870323 0.07216878364870323 0.07216878364870323 0.07216878364870323 0.07216878364870323 0.07216878364870323 0.07216878364870323 0.07216878364870323
0.07216878364870323 0.07216878364870323 0.07216878364870323 0.07216878364870323 0.07216878364870323 0.07216878364870323 0.07216878364870323 0.07216878364870323
0.07216878364870323 0.07216878364870323 0.07216878364870323 0.07216878364870323 0.07216878364870323 0.07216878364870323 0.07216878364870323 0.07216878364870323
0.07216878364870323 0.07216878364870323 0.07216878364870323 0.07216878364870323 0.07216878364870323 0.07216878364870323 0.07216878364870323 0.07216878364870323
0.07216878364870323 0.07216878364870323 0.07216878364870323 0.07216878364870323 0.07216878364870323 0.07216878364870323 0.07216878364870323 0.07216878364870323
0.07216878364870323 0.07216878364870323 0.07216878364870323 0.07216878364870323 0.07216878364870323 0.07216878364870323 0.07216878364870323 0.07216878364870323
0.07216878364870323 0.07216878364870323 0.07216878364870323 0.07216878364870323 0.07216878364870323 0.07216878364870323 0.07216878364870323 0.07216878364870323
0.07216878364870323 0.07216878364870323 0.07216878364870323 0.07216878364870323 0.07216878364870323 0.07216878364870323 0.07216878364870323 0.07216878364870323
0.07216878364870323 0.07216878364870323 0.07216878364870323 0.07216878364870323 0.07216878364870323 0.07216878364870323 0.07216878364870323 0.07216878364870323
0.07216878364870323 0.07216878364870323 0.07216878364870323 0.07216878364870323 0.07216878364870323 0.07216878364870323 0.07216878364870323 0.07216878364870323
0.07216878364870323 0.07216878364870323 0.07216878364870323 0.07216878364870323 0.07216878364870323 0.07216878364870323 0.07216878364870323 0.07216878364870323
0.07216878364870323 0.07216878364870323 0.07216878364870323 0.07216878364870323 0.07216878364870323 0.07216878364870323 0.07216878364870323 0.07216878364870323
0.07216878364870323 0.07216878364870323 0.07216878364870323 0.07216878364870323 0.07216878364870323 0.07216878364870323 0.07216878364870323 0.07216878364870323
0.07216878364870323 0.07216878364870323 0.07216878364870323 0.07216878364870323 0.07216878364870323 0.07216878364870323 0.07216878364870323 0.07216878364870323
0.07216878364870323 0.07216878364870323 0.07216878364870323 0.07216878364870323 0.07216878364870323 0.07216878364870323 0.07216878364870323 0.07216878364870323
00000000: 1d33 9045 a779 b23f 1d33 9045 a779 b23f
00000010: 1d33 9045 a779 b23f 1d33 9045 a779 b23f
00000020: 1d33 9045 a779 b23f 1d33 9045 a779 b23f
00000030: 1d33 9045 a779 b23f 1d33 9045 a779 b23f
00000040: 1d33 9045 a779 b23f 1d33 9045 a779 b23f
00000050: 1d33 9045 a779 b23f 1d33 9045 a779 b23f
00000060: 1d33 9045 a779 b23f 1d33 9045 a779 b23f
00000070: 1d33 9045 a779 b23f 1d33 9045 a779 b23f
00000080: 1d33 9045 a779 b23f 1d33 9045 a779 b23f
00000090: 1d33 9045 a779 b23f 1d33 9045 a779 b23f
000000a0: 1d33 9045 a779 b23f 1d33 9045 a779 b23f
000000b0: 1d33 9045 a779 b23f 1d33 9045 a779 b23f
000000c0: 1d33 9045 a779 b23f 1d33 9045 a779 b23f
000000d0: 1d33 9045 a779 b23f 1d33 9045 a779 b23f
000000e0: 1d33 9045 a779 b23f 1d33 9045 a779 b23f
000000f0: 1d33 9045 a779 b23f 1d33 9045 a779 b23f
00000100: 1d33 9045 a779 b23f 1d33 9045 a779 b23f
00000110: 1d33 9045 a779 b23f 1d33 9045 a779 b23f
00000120: 1d33 9045 a779 b23f 1d33 9045 a779 b23f
00000130: 1d33 9045 a779 b23f 1d33 9045 a779 b23f
00000140: 1d33 9045 a779 b23f 1d33 9045 a779 b23f
00000150: 1d33 9045 a779 b23f 1d33 9045 a779 b23f
00000160: 1d33 9045 a779 b23f 1d33 9045 a779 b23f
00000170: 1d33 9045 a779 b23f 1d33 9045 a779 b23f
00000180: 1d33 9045 a779 b23f 1d33 9045 a779 b23f
00000190: 1d33 9045 a779 b23f 1d33 9045 a779 b23f
000001a0: 1d33 9045 a779 b23f 1d33 9045 a779 b23f
000001b0: 1d33 9045 a779 b23f 1d33 9045 a779 b23f
000001c0: 1d33 9045 a779 b23f 1d33 9045 a779 b23f
000001d0: 1d33 9045 a779 b23f 1d33 9045 a779 b23f
000001e0: 1d33 9045 a779 b23f 1d33 9045 a779 b23f
000001f0: 1d33 9045 a779 b23f 1d33 9045 a779 b23f
00000200: 1d33 9045 a779 b23f 1d33 9045 a779 b23f
00000210: 1d33 9045 a779 b23f 1d33 9045 a779 b23f
00000220: 1d33 9045 a779 b23f 1d33 9045 a779 b23f
00000230: 1d33 9045 a779 b23f 1d33 9045 a779 b23f
00000240: 1d33 9045 a779 b23f 1d33 9045 a779 b23f
00000250: 1d33 9045 a779 b23f 1d33 9045 a779 b23f
00000260: 1d33 9045 a779 b23f 1d33 9045 a779 b23f
00000270: 1d33 9045 a779 b23f 1d33 9045 a779 b23f
00000280: 1d33 9045 a779 b23f 1d33 9045 a779 b23f
00000290: 1d33 9045 a779 b23f 1d33 9045 a779 b23f
000002a0: 1d33 9045 a779 b23f 1d33 9045 a779 b23f
000002b0: 1d33 9045 a779 b23f 1d33 9045 a779 b23f
000002c0: 1d33 9045 a779 b23f 1d33 9045 a779 b23f
000002d0: 1d33 9045 a779 b23f 1d33 9045 a779 b23f
000002e0: 1d33 9045 a779 b23f 1d33 9045 a779 b23f
000002f0: 1d33 9045 a779 b23f 1d33 9045 a779 b23f
00000300: 1d33 9045 a779 b23f 1d33 9045 a779 b23f
00000310: 1d33 9045 a779 b23f 1d33 9045 a779 b23f
00000320: 1d33 9045 a779 b23f 1d33 9045 a779 b23f
00000330: 1d33 9045 a779 b23f 1d33 9045 a779 b23f
00000340: 1d33 9045 a779 b23f 1d33 9045 a779 b23f
00000350: 1d33 9045 a779 b23f 1d33 9045 a779 b23f
00000360: 1d33 9045 a779 b23f 1d33 9045 a779 b23f
00000370: 1d33 9045 a779 b23f 1d33 9045 a779 b23f
00000380: 1d33 9045 a779 b23f 1d33 9045 a779 b23f
00000390: 1d33 9045 a779 b23f 1d33 9045 a779 b23f
000003a0: 1d33 9045 a779 b23f 1d33 9045 a779 b23f
000003b0: 1d33 9045 a779 b23f 1d33 9045 a779 b23f
000003c0: 1d33 9045 a779 b23f 1d33 9045 a779 b23f
000003d0: 1d33 9045 a779 b23f 1d33 9045 a779 b23f
000003e0: 1d33 9045 a779 b23f 1d33 9045 a779 b23f
000003f0: 1d33 9045 a779 b23f 1d33 9045 a779 b23f
00000400: 1d33 9045 a779 b23f 1d33 9045 a779 b23f
00000410: 1d33 9045 a779 b23f 1d33 9045 a779 b23f
00000420: 1d33 9045 a779 b23f 1d33 9045 a779 b23f
00000430: 1d33 9045 a779 b23f 1d33 9045 a779 b23f
00000440: 1d33 9045 a779 b23f 1d33 9045 a779 b23f
00000450: 1d33 9045 a779 b23f 1d33 9045 a779 b23f
00000460: 1d33 9045 a779 b23f 1d33 9045 a779 b23f
00000470: 1d33 9045 a779 b23f 1d33 9045 a779 b23f
00000480: 1d33 9045 a779 b23f 1d33 9045 a779 b23f
00000490: 1d33 9045 a779 b23f 1d33 9045 a779 b23f
000004a0: 1d33 9045 a779 b23f 1d33 9045 a779 b23f
000004b0: 1d33 9045 a779 b23f 1d33 9045 a779 b23f
000004c0: 1d33 9045 a779 b23f 1d33 9045 a779 b23f
000004d0: 1d33 9045 a779 b23f 1d33 9045 a779 b23f
000004e0: 1d33 9045 a779 b23f 1d33 9045 a779 b23f
000004f0: 1d33 9045 a779 b23f 1d33 9045 a779 b23f
00000500: 1d33 9045 a779 b23f 1d33 9045 a779 b23f
00000510: 1d33 9045 a779 b23f 1d33 9045 a779 b23f
00000520: 1d33 9045 a779 b23f 1d33 9045 a779 b23f
00000530: 1d33 9045 a779 b23f 1d33 9045 a779 b23f
00000540: 1d33 9045 a779 b23f 1d33 9045 a779 b23f
00000550: 1d33 9045 a779 b23f 1d33 9045 a779 b23f
00000560: 1d33 9045 a779 b23f 1d33 9045 a779 b23f
00000570: 1d33 9045 a779 b23f 1d33 9045 a779 b23f
00000580: 1d33 9045 a779 b23f 1d33 9045 a779 b23f
00000590: 1d33 9045 a779 b23f 1d33 9045 a779 b23f
000005a0: 1d33 9045 a779 b23f 1d33 9045 a779 b23f
000005b0: 1d33 9045 a779 b23f 1d33 9045 a779 b23f
000005c0: 1d33 9045 a779 b23f 1d33 9045 a779 b23f
000005d0: 1d33 9045 a779 b23f 1d33 9045 a779 b23f
000005e0: 1d33 9045 a779 b23f 1d33 9045 a779 b23f
000005f0: 1d33 9045 a779 b23f 1d33 9045 a779 b23f
00000600: 1d33 9045 a779 b23f 1d33 9045 a779 b23f
00000610: 1d33 9045 a779 b23f 1d33 9045 a779 b23f
00000620: 1d33 9045 a779 b23f 1d33 9045 a779 b23f
00000630: 1d33 9045 a779 b23f 1d33 9045 a779 b23f
00000640: 1d33 9045 a779 b23f 1d33 9045 a779 b23f
00000650: 1d33 9045 a779 b23f 1d33 9045 a779 b23f
00000660: 1d33 9045 a779 b23f 1d33 9045 a779 b23f
00000670: 1d33 9045 a779 b23f 1d33 9045 a779 b23f
00000680: 1d33 9045 a779 b23f 1d33 9045 a779 b23f
00000690: 1d33 9045 a779 b23f 1d33 9045 a779 b23f
000006a0: 1d33 9045 a779 b23f 1d33 9045 a779 b23f
000006b0: 1d33 9045 a779 b23f 1d33 9045 a779 b23f
000006c0: 1d33 9045 a779 b23f 1d33 9045 a779 b23f
000006d0: 1d33 9045 a779 b23f 1d33 9045 a779 b23f
000006e0: 1d33 9045 a779 b23f 1d33 9045 a779 b23f
000006f0: 1d33 9045 a779 b23f 1d33 9045 a779 b23f
00000700: 1d33 9045 a779 b23f 1d33 9045 a779 b23f
00000710: 1d33 9045 a779 b23f 1d33 9045 a779 b23f
00000720: 1d33 9045 a779 b23f 1d33 9045 a779 b23f
00000730: 1d33 9045 a779 b23f 1d33 9045 a779 b23f
00000740: 1d33 9045 a779 b23f 1d33 9045 a779 b23f
00000750: 1d33 9045 a779 b23f 1d33 9045 a779 b23f
00000760: 1d33 9045 a779 b23f 1d33 9045 a779 b23f
00000770: 1d33 9045 a779 b23f 1d33 9045 a779 b23f
00000780: 1d33 9045 a779 b23f 1d33 9045 a779 b23f
00000790: 1d33 9045 a779 b23f 1d33 9045 a779 b23f
000007a0: 1d33 9045 a779 b23f 1d33 9045 a779 b23f
000007b0: 1d33 9045 a779 b23f 1d33 9045 a779 b23f
000007c0: 1d33 9045 a779 b23f 1d33 9045 a779 b23f
000007d0: 1d33 9045 a779 b23f 1d33 9045 a779 b23f
000007e0: 1d33 9045 a779 b23f 1d33 9045 a779 b23f
000007f0: 1d33 9045 a779 b23f 1d33 9045 a779 b23f

layers.2.act.bias f8 [24]
0.736606420288109 1.6657256822810025 0.33090282879599753 -0.2130108047167064 1.0900879136783848 1.727811577109334 0.771179431208457 1.9358192797428595
1.236509442336913 1.1390670261702946 1.2563871754446694 1.6888190553102231 1.3729747183806549 1.7227392842939049 1.5060347264933591 0.7737190344435844
1.2425153461579366 1.163643713743601 1.0726466891358053 0.6449133046130523 1.444206853557815 1.5250615584623306 1.0479568212610266 1.1222030629323452
00000000: 6527 a5a0 4792 e73f 2c11 18f9 cfa6 fa3f
00000010: e64a f50e 832d d53f 83f8 f923 f043 cbbf
00000020: 6f37 3006 0071 f13f 3a5b 95c0 1da5 fb3f
00000030: 2c6c 8c7c 80ad e83f c463 17a3 1df9 fe3f
00000040: 0d84 0020 bec8 f33f 7ea7 9558 9e39 f23f
00000050: f360 5a70 291a f43f 52b4 3621 6705 fb3f
00000060: 25e0 9a56 b4f7 f53f 713a 5911 5790 fb3f
00000070: 57de 8ede b718 f83f e54a a76b 4ec2 e83f
00000080: 5e6c 88c5 57e1 f33f 9698 ebde 489e f23f
00000090: f103 2093 8f29 f13f e32f 023a 21a3 e43f
000000a0: bc09 4ba5 781b f73f 54b8 dff2 a666 f83f
000000b0: c9fa 2e5f 6ec4 f03f 4b3f ec32 8bf4 f13f

layers.3.conv.kernel.weight f8 [13824]
-5.839471842157251 -4.229461393377199 -0.5358136180262879 -2.818404374195056 6.349975235242162 1.6277192853957756 2.87794919483675 3.8652347076118616
-3.80297218172145 -0.6995039987792836 -1.3589976212177144 -1.4879340355388464 -3.2490110145941085 -3.223150173263081 -1.6558834679226966 -0.17558315359120125
7.0238298321137185 6.0582923936178155 4.090360727793262 0.8731757816578285 4.116766313598878 0.828550105804793 -1.5835744172260835 -0.7502981598555059
3.662448214402809 3.664388753356109 3.7862696684369506 2.6615278176453745 -1.1223605206290779 -4.501232851756525 -0.8268027734719369 -0.755994908936114
1.6989085007587192 1.7479270404158544 0.923424080158797 3.088809163047005 -2.770569879713727 -2.2042760347063974 -1.7459350318737439 -2.550388347140084
-3.968929247368976 -3.444335346221079 -1.3741004374081423 -1.3079374202963965 2.8339860781006267 2.127362289911218 3.0575699391451305 3.649811576459414
-3.6475154451357663 -4.3570573487719475 -2.9335775323854443 -0.8210729385737489 1.4595471474846289 2.148941916354223 3.0673240029213473 2.288206566319865
2.5705604742269563 2.7080630460244457 1.5461188167159068 1.0629038683870267 3.7466339585437733 5.471153223912295 2.4709063721204996 1.0159009123382416
1.987103733291199 4.084209048384887 -0.11836178221673714 1.4638308385863654 -1.6723353344243697 -2.251053614637141 0.8441805583292241 1.4762235130716146
-2.522503723867617 1.1211944467029515 2.654266430575893 1.0031228085154342 7.50350722888573 1.299377686891399 1.1257932644767064 0.8833925535211727
3.0201214617696275 2.5100183674615266 3.688443798018221 3.19447533905587 1.9110864211231444 3.2813090070258264 1.4520855783100421 3.538746390771767
4.521382815008375 2.9863337989073404 1.856614280612138 4.344979467015011 4.590051767561789 2.882226433772975 0.3943837214420706 0.6505536688944618
-3.1026115988004372 -3.0176947641812815 -1.7875171843779012 -1.8399348720560755 3.782601344835126 4.345307197211635 1.7499447444107543 2.193626541537527
-2.5593303337561917 -3.1195114350223014 -1.7033542839115923 -0.5318394767533606 -2.227314685980455 -2.3783327046881593 -2.0810980815108864 -2.007465825660171
4.043038332420237 6.5809090737314415 5.915922307966588 1.7431093451487236 2.110969342082389 0.3764827729761067 -0.4323713352483707 -0.4154786494694247
1.2381834520968018 3.4117685668286817 1.9651990410198044 0.32908146401388855 -3.554230894698454 -4.545613902113668 -0.9527873997160144 1.2156318187491457
-0.16704022401554444 1.1603518841887326 1.787967745677057 0.5799265977106192 -0.03750367087921746 -1.4920745824847956 -2.305783233246972 -1.5659735139712039
-1.4190984228780978 -3.056755492474612 -1.7400713149311657 -2.7788661541660726 0.7275885097657883 1.9773464476093625 3.561078743916237 2.292966821482788
-3.534908120041288 -2.502907502155386 -2.4003828045510778 -0.47094162541218954 1.2462483544892742 4.324628536673499 3.825855964576149 1.6569519737532312
1.2541203480042593 3.2574000365270086 2.8137039163600193 4.251237351385151 4.485329492245932 5.380013491483127 5.828345196479001 1.2545385732004535
2.47416933728818 -1.1643476073522574 1.4577630996352253 2.41504367834105 -4.117358191894091 -1.6096894643160529 -0.01472999213315824 0.49021371354687404
0.1352984640219952 3.3441933048793753 4.377872517374668 2.9509677961932597 6.617155825701235 2.728693785910969 0.8434939894222815 -1.2072413345864446
1.671921595219376 2.713680802016315 1.5539731910951904 0.04940234225927239 1.4519476520799475 4.57862530659138 1.6558415630107792 1.469885877176697
1.2099739348084246 4.9786094188577605 3.2189717647673226 3.4352766711555613 4.109284987785708 1.666784765044849 1.6765184294991742 0.3116395049876532
-0.24270211207170822 -1.7894512576226345 -1.9305206757836941 -2.546317877165415 3.4350091459182464 4.0752592762003435 2.5340517786740233 2.3967385956497957
-1.7160820768743175 -4.542432237719635 -4.920979841305457 -2.3807023513401244 -2.8223902143887867 -3.833909404412344 -3.183213352401063 -2.345339849493386
1.0974922863743284 -2.130665636400977 -1.4051313777535024 -1.508123968503416 0.9999508090138359 1.8714257588560934 0.45331626756247423 2.1141704443098583
0.24439102150192304 1.2995753317034142 -0.9185698143907463 2.7028087421591205 -3.969695670587929 -3.429917515117192 -2.8849281964072957 -0.4604089794712225
0.4581819935886 2.8790034442478327 0.44648280759765974 -0.6064942283955559 -1.8068814400526045 -3.6664335612739243 0.36092555313212765 -0.6077694223281276
-2.01301359920153 -3.567582192330293 -3.7281322794337766 -1.0938284219319314 2.723128192293928 2.020078923649651 1.8619560789391678 2.7457939050117224
-3.1818852820160557 -3.3991455897624285 -1.944279031398471 0.5180535855142704 4.05523641604099 1.818440374185252 3.0871893776823356 4.538289172070626
4.062099551101698 3.875025727901473 2.005224120575979 4.187662062921542 4.068564838224956 -0.11999940563467824 -1.6179747656212833 -0.03898601961320051
00000000: bfe9 af81 9e5b 17c0 a7ff 70ed f7ea 10c0
00000010: 3794 c599 6225 e1bf a391 b097 178c 06c0
00000020: 9819 77e8 5f66 1940 597e 9d60 230b fa3f
00000030: abfc 3a3a 0a06 0740 e074 a42c 00ec 0e40
00000040: 2ebb e0ad 7c6c 0ec0 33b4 c535 5662 e6bf
00000050: d18c 274a 74be f5bf 13ea 53eb 93ce f7bf
00000060: 2c34 a07c f9fd 09c0 e517 42f5 02c9 09c0
00000070: d570 cba9 7f7e fabf 748d 333f 8279 c6bf
00000080: ef63 f6d8 6618 1c40 bcc6 5000 b13b 1840
00000090: f9db ca85 875c 1040 c425 3c56 0ef1 eb3f
000000a0: 05ba a896 9177 1040 f6ec f082 7b83 ea3f
000000b0: e84a cc20 5256 f9bf 1282 5a49 7102 e8bf
000000c0: b33a 41a6 b14c 0d40 24f5 fb0c ab50 0d40
000000d0: 0f30 7ec0 474a 0e40 f772 b118 cf4a 0540
000000e0: 57c6 264e 30f5 f1bf 7ee6 472f 4301 12c0
000000f0: e7ba 0917 2b75 eabf e656 3a3c 1c31 e8bf
00000100: 407b 1aae ba2e fb3f 2815 2658 82f7 fb3f
00000110: 8ade 13a8 b08c ed3f e5f9 1694 e1b5 0840
00000120: 9239 858a 202a 06c0 435d 4379 5ba2 01c0
00000130: 486a 6d92 59ef fbbf 7d87 7801 3267 04c0
00000140: 80b3 2cfa 5dc0 0fc0 9ccf a3b0 ff8d 0bc0
00000150: 7165 81bd 50fc f5bf bb33 d6c9 4fed f4bf
00000160: 8a17 96e4 00ac 0640 7f4c 2f85 d604 0140
00000170: 6ce3 6e3a e775 0840 a2a4 6b69 d032 0d40
00000180: 9f1a e493 1c2e 0dc0 8216 0f71 a06d 11c0
00000190: c501 4f7f f777 07c0 7bc1 59c1 3a46 eabf
000001a0: 45aa 161c 4e5a f73f abf5 9d75 0831 0140
000001b0: 9343 b62a e189 0840 b1b0 863e 3f4e 0240
000001c0: 6b8f 8902 8290 0440 f872 51f5 1caa 0540
000001d0: 8e66 9815 e7bc f83f 083a 987c a701 f13f
000001e0: 6c3a 9039 1bf9 0d40 df6e a0fd 75e2 1540
000001f0: 69e2 5d8f 6ac4 0340 4c82 a750 2141 f03f
00000200: 5dec c348 2dcb ff3f 8a5c 93e5 3a56 1040
00000210: d397 b72f f54c bebf d4ac a9e2 d96b f73f
00000220: 29c4 14b2 e2c1 fabf da45 c365 2802 02c0
00000230: 5e2d 3ef2 8603 eb3f 38a9 e38b 9c9e f73f
00000240: a465 b06e 162e 04c0 62bc 9096 69f0 f13f
00000250: 8c8d d109 f03b 0540 9b20 8780 ca0c f03f
00000260: 8774 2566 9703 1e40 6a9c e541 40ca f43f
00000270: a5c0 4fcc 3f03 f23f 61e8 dc75 c044 ec3f
00000280: 72fc e170 3529 0840 40da 8482 8414 0440
00000290: 73fa 6cd2 ee81 0d40 dffc 2816 498e 0940
000002a0: 80db e85a cf93 fe3f 22f8 c9ef 1e40 0a40
000002b0: a95b 5d16 be3b f73f 499f 8944 5a4f 0c40
000002c0: 2aa1 6c60 e515 1240 c4f8 89f9 02e4 0740
000002d0: 4e40 082d b1b4 fd3f e37b 224c 4261 1140
000002e0: e07f d287 365c 1240 eac5 85bb cc0e 0740
000002f0: 2bc8 6a38 953d d93f 8e39 86ed 55d1 e43f
00000300: 224e a807 26d2 08c0 96c0 0b27 3d24 08c0
00000310: b20e 7f9e ab99 fcbf 3b03 648c 5f70 fdbf
00000320: d9fa 6e7e c442 0e40 bb63 bc35 9861 1140
00000330: ffd1 700f c6ff fb3f 8254 7c12 8c8c 0140
00000340: 1c26 992e 8279 04c0 bb59 4769 c2f4 08c0
00000350: b96d ee6b f040 fbbf f513 ec38 d404 e1bf
00000360: 157e b15c 8ad1 01c0 9924 0d4c d306 03c0
00000370: 5ddc 3ec0 16a6 00c0 7462 283e 4a0f 00c0
00000380: 8fe0 983d 122c 1040 3981 06d4 d952 1a40
00000390: c792 9989 e7a9 1740 7d40 ec9f c6e3 fb3f
000003a0: ead1 f8e4 43e3 0040 3525 5c33 4b18 d83f
000003b0: 98a7 27d2 f8ab dbbf 4813 eac2 3397 dabf
000003c0: 2f44 9373 99cf f33f 5b66 8051 4d4b 0b40
000003d0: 4ff8 b48c 7471 ff3f 7734 6ab3 ab0f d53f
000003e0: 2b4d 799b 106f 0cc0 db48 2769 b52e 12c0
000003f0: f546 3a00 3c7d eebf c312 9859 3a73 f33f
00000400: 11b3 a1f5 9261 c5bf d514 2723 cd90 f23f
00000410: dcc5 1f11 849b fc3f d0ec 6739 c28e e23f
00000420: aff7 cf5f ae33 a3bf da70 ef98 89df f7bf
00000430: e4af d37a 3e72 02c0 4c89 4e3e 3a0e f9bf
00000440: d410 418c a0b4 f6bf ea5f 4039 3c74 08c0
00000450: a764 e504 55d7 fbbf 2cd6 a02d 1e3b 06c0
00000460: 4576 ccb2 6748 e73f fb80 5507 36a3 ff3f
00000470: d7ce 3cda 167d 0c40 35a7 28fd fe57 0240
00000480: 9389 8fe8 7d47 0cc0 0c5d 555e f405 04c0
00000490: ce6b 5be6 fb33 03c0 a21b de57 e823 debf
000004a0: 9d9a 531d a2f0 f33f ae71 516c 6b4c 1140
000004b0: 1f7d 385f 5a9b 0e40 2401 a512 e082 fa3f
000004c0: abd2 7e7f e010 f43f 4efb 16c0 270f 0a40
000004d0: b025 eb32 7782 0640 79ee 3e5d 4401 1140
000004e0: 19ec e336 faf0 1140 d1d5 b741 2285 1540
000004f0: 3ab4 22b9 3950 1740 9476 f709 9712 f43f
00000500: 8d59 234b 19cb 0340 8b0f ecf4 2aa1 f2bf
00000510: 6cfb 6366 ff52 f73f 4017 876b 0252 0340
00000520: 4869 f0be 2c78 10c0 5540 5fbd 49c1 f9bf
00000530: e5a6 db13 c22a 8ebf a402 ef56 a95f df3f
00000540: 5035 16c7 7551 c13f 2fac 5f6b e8c0 0a40
00000550: bfb9 6003 f182 1140 0d98 0101 959b 0740
00000560: d3b0 5fb2 f777 1a40 ce49 5a68 5dd4 0540
00000570: e01e 5e1b e7fd ea3f ccd9 264a dc50 f3bf
00000580: 0b18 cfdb 30c0 fa3f 848b c347 9eb5 0540
00000590: 68d5 29fe 12dd f83f 1be1 b288 434b a93f
000005a0: 6eff 1276 2d3b f73f b3ca 0127 8350 1240
000005b0: 35d2 07b9 537e fa3f 0f38 b50d a784 f73f
000005c0: e23b f0a0 0d5c f33f e334 6696 18ea 1340
000005d0: 6b62 c344 74c0 0940 5c99 da55 727b 0b40
000005e0: faee 6167 e86f 1040 326b 7580 26ab fa3f
000005f0: 9a71 1dfd 04d3 fa3f 0312 84d2 e6f1 d33f
00000600: 8c51 02e1 dc10 cfbf 9267 54a4 97a1 fcbf
00000610: 73e2 eba5 69e3 febf 322a 3de8 db5e 04c0
00000620: 2670 3913 e67a 0b40 2201 88c4 104d 1040
00000630: 5934 5ef0 bc45 0440 c503 eb48 852c 0340
00000640: cbd4 d67a 1275 fbbf 2d35 455b 732b 12c0
00000650: 95ba ea56 15af 13c0 0c21 a4ac ad0b 03c0
00000660: 59cd 1a52 4194 06c0 0c39 9eb1 d8ab 0ec0
00000670: 5306 e68f 3877 09c0 22a3 fc89 41c3 02c0
00000680: ab70 5912 548f f13f 006d d86c 9a0b 01c0
00000690: 318e 200a 6b7b f6bf 1293 3099 4621 f8bf
000006a0: 6357 cad6 98ff ef3f cadc f222 5cf1 fd3f
000006b0: 3c3d fb3b 2203 dd3f 55d8 a331 d2e9 0040
000006c0: 9cb5 647a 3448 cf3f 19ac c580 0fcb f43f
000006d0: 5dd5 fc85 ec64 edbf 9f54 9730 5a9f 0540
000006e0: cafb c1cd efc1 0fc0 563f 1b98 7870 0bc0
000006f0: 5305 f73b 5514 07c0 d045 6739 5777 ddbf
00000700: 4810 8591 da52 dd3f 29ed 30f5 3208 0740
00000710: e5ec 36a0 2c93 dc3f 4c7e 8595 6668 e3bf
00000720: b767 4c83 fce8 fcbf cb06 751e db54 0dc0
00000730: 9190 bf7d 6719 d73f 520f 0ddc d872 e3bf
00000740: 64ca b7df a61a 00c0 02ce 4e88 688a 0cc0
00000750: d9a3 3a04 37d3 0dc0 8020 3a3b 5280 f1bf
00000760: 81be 056f f7c8 0540 2450 8323 1f29 0040
00000770: 2a1d 1a75 92ca fd3f dea6 7ccb 62f7 0540
00000780: c30f 4f45 8074 09c0 65fa 323e 7331 0bc0
00000790: d77a 6254 c41b ffbf a37f eb1c e593 e03f
000007a0: f7c6 21e5 8f38 1040 66a0 0def 5418 fd3f
000007b0: 40a2 2d58 90b2 0840 4756 d746 3527 1240
000007c0: f34f 5406 973f 1040 9ff6 237d 0d00 0f40
000007d0: 8b31 98f1 b20a 0040 abca db7b 2ac0 1040
000007e0: ae53 67dc 3546 1040 9f89 bdf2 47b8 bebf
000007f0: fd8b 0182 39e3 f9bf 95d5 7abe f9f5 a3bf

layers.3.conv.kernel.radii f8 [4]
0.0 0.8333333333333334 1.6666666666666667 2.5
00000000: 0000 0000 0000 0000 abaa aaaa aaaa ea3f
00000010: abaa aaaa aaaa fa3f 0000 0000 0000 0440
