examples/revised_batch_pth/missing_point_epoch_250.pth (torch_old, 68820 bytes, 14 tensors)

layers.0.weight f8 [15, 5]
00000000: e51f 6b3c fa6a 9fbf bf5b decb 6ab0 da3f
00000010: bcad 7297 92c2 c83f 1f0e 3c24 ea97 cb3f
00000020: 03fe e7a8 d1de cc3f dce5 1276 97f7 d1bf
00000030: f16b 50cc 8de9 debf f33c 2ec7 1ee5 e83f
00000040: 81db 80b5 a919 d93f af9e db53 e644 be3f
00000050: 7606 bcec 02b8 eebf 7956 a2a9 21c9 d03f
00000060: 161d 6dd9 882b b1bf b8dd d1e0 583f d8bf
00000070: 9061 eb0e f2ca debf 216a ada6 196b d23f
00000080: ab71 e1b0 dbd4 d53f 68fc ccee 29af d7bf
00000090: 1b0c 95d3 45d9 d2bf b3f1 5761 8bb7 b7bf
000000a0: 3ec2 7a02 419c d33f 0580 2de7 9969 cbbf
000000b0: 00ae 0574 fd86 d43f 23fa f42d bf10 d03f
000000c0: b69c f35a 34e1 d03f 9724 04b2 c57f e43f
000000d0: b92a 3cb2 9799 cbbf 297d cb7b 269f b93f
000000e0: 1eac af77 5af8 b8bf 5890 24eb f699 e83f
000000f0: 87e5 f52a 0fd6 a3bf 67b0 02ec 8d47 d03f
00000100: 9667 badc adc4 dd3f c9d7 38ce 354a e8bf
00000110: fcbf 0e16 de9b e6bf 8799 fdf3 20a9 89bf
00000120: df4f 0364 ce40 df3f 83ca 7529 2b4f ebbf
00000130: 0657 6d5d ccfe d9bf 525b 34e9 d767 d7bf
00000140: 627b f58a 6de2 d73f e848 e9f2 42f2 cf3f
00000150: 2f28 e18c 559f e93f 7ff7 6654 1f59 d43f
00000160: 5fd2 df44 66b6 933f 51be 84e9 08b0 883f
00000170: af1d 8761 3d3e d13f 5356 3695 e850 cbbf
00000180: d707 ac43 b3df e6bf 808b 1987 db26 c7bf
00000190: 624e c201 30ca e33f 5886 9f93 238a e7bf
000001a0: 428f 13da 7560 e63f b451 77c9 d867 e13f
000001b0: 76b4 a088 001d d43f 5f03 b410 10ab e23f
000001c0: 77de b836 fd5f c0bf ed18 9709 42f0 b63f
000001d0: ed12 2ef8 f3a1 cc3f dd25 263f b038 ebbf
000001e0: 695e fd27 f127 dabf 7c8f b0a4 e956 d0bf
000001f0: eb24 9b22 0f5c eabf 3fe2 0163 8e9b f7bf
00000200: d720 dd66 3aa4 e1bf 47cd 9c98 12f4 d0bf
00000210: 7135 14dc 29b4 d03f 8f91 a1ef ae9f cf3f
00000220: bc4b 085d 755b a13f 0b36 f912 dc3d e03f
00000230: 50a5 5274 0a4a e0bf 990c 5dc4 0fbe dd3f
00000240: 559a 8a9c fccc c0bf 7cad a188 0c99 cabf
00000250: 7dac 1d53 16b8 f0bf
-0.030681524217271678 0.4170176497368025 0.19343788523597805 0.21557356614367593 0.2255498957383538 -0.28073679476400826 -0.4830049987082808 0.7779687776800571
0.3921913406842848 0.11823882624923486 -0.9599623321266353 0.2622760922034569 -0.06707053478486488 -0.37886640505845603 -0.4811368127534701 0.28778687741365344
0.3411168315267569 -0.3700661499060005 -0.2945112768395021 -0.09264441610861844 0.3064119838918805 -0.2141601923749478 0.32073913889209393 0.25102214324934574
0.26374539262765084 0.6405971981886464 -0.21562477305299924 0.10008469126068022 -0.09753957197214944 0.768794497741065 -0.038742517465787656 0.2543673329153137
0.4651293426082871 -0.7590588596128721 -0.7065267973721343 -0.012529618688586165 0.48833045737160136 -0.8534141359107966 -0.4061766540884125 -0.36571309827688936
0.37319506235319555 0.24958073483373444 0.8006999732545007 0.3179395984878894 0.01925048632979764 0.012054509760303452 0.2694238140506639 -0.2134066322875464
-0.7148071595877309 -0.18087333771390135 0.6184310945850024 -0.7356126673950696 0.6992749461464671 0.543926614273508 0.31427014677576126 0.5833816839441218
-0.12792935535411562 0.08960354551445322 0.22369241350329308 -0.8506699784640507 -0.4086878672146442 -0.2553047283456562 -0.8237376857661308 -1.4754775874590818
-0.551297379403901 -0.26489701179089703 0.2609963082512286 0.24706064892519605 0.03390089760446055 0.5075512285781668 -0.5090381881647463 0.4647254388439222
-0.13125569957374475 -0.20779568358862466 -1.044943165465866

layers.0.bias f8 [15]
00000000: e4b5 7cf0 e646 c83f 60db a769 25ab ca3f
00000010: 13a1 7196 5ce7 c53f 46dc ba68 16fb c03f
00000020: 4ceb 1710 36c7 a1bf a2b5 9d0e c6da cebf
00000030: e6e9 5e76 ba21 ddbf c0e5 e9f1 d899 97bf
00000040: c9a1 076a 055e a2bf fae1 ee52 f077 bcbf
00000050: 19d6 5ea4 4f34 ba3f a49a bd31 9d74 dabf
00000060: 77a9 1fba b9b3 c6bf c323 edf7 fd8f d43f
00000070: 629d 9f85 8d29 debf
0.18966376059090273 0.20834796580285353 0.17112309785739707 0.13266258348241616 -0.034722985710649995 -0.241051442276711 -0.4551836162533206 -0.0230478189136869
-0.03587357444104417 -0.11120512032255894 0.10236070406866594 -0.41336755616650067 -0.17735978687353413 0.3212885781436478 -0.4712861828724809

layers.2.conv.kernel.weight f8 [1800]
00000000: 6449 e219 f74b ee3f b33b 6e5d 4dc7 dbbf
00000010: 4253 e964 0838 683f d765 9642 14c2 f2bf
00000020: b136 b134 7919 f2bf a26d 43e4 36f5 f3bf
00000030: f58f 71d5 b910 f03f c77c f28b 7cef ea3f
00000040: dacb 89e5 ab12 cfbf 2375 bb2e 5519 e33f
00000050: b826 7b2d dba9 fc3f 3c98 4063 4081 f03f
00000060: 7b18 90bc f2b8 d3bf f264 540f fab3 0140
00000070: f4fa 37b7 5b80 f13f 4fda a344 eec1 d1bf
00000080: 8082 82d2 e447 cbbf aa09 aff9 cde5 f8bf
00000090: df03 7e10 e8b4 c03f f408 6fbf b41a d13f
000000a0: b333 524f 14a8 f5bf 4aed 5fff 6f81 e7bf
000000b0: 81ba be94 9032 de3f c526 2c2b e374 dabf
000000c0: 63e3 800c 1a1a dabf e478 61de d0e7 d1bf
000000d0: 16c5 292a 3429 f83f 16be ef12 d747 febf
000000e0: 08db 3bf1 8b41 ac3f 9fc1 2fba 821e eebf
000000f0: b414 6d19 c0a6 e1bf 709f f7d5 c35c e53f
00000100: 1875 a6c0 1c50 a6bf aa1e 1459 74d2 e8bf
00000110: ac68 45db 4624 fd3f 46f3 a9c6 1a64 f8bf
00000120: cff3 3d6c 4964 e53f 2104 1758 d285 f53f
00000130: 23c7 1f7e de81 c93f 794f 4fb3 ea4b aa3f
00000140: 1203 b7d8 85fc d7bf 8890 a083 ff27 9abf
00000150: dbf9 fc00 9d8d df3f 20ab a0b5 be9e d83f
00000160: 1a63 3d2c e6a9 e13f 9658 31b4 91b3 9c3f
00000170: c6da 8d49 48b8 eebf 231f 6fbe 7dee f73f
00000180: 866f 6302 3792 debf 2e3a 5356 9285 f23f
00000190: de81 b9c1 b824 00c0 c181 1683 cde3 e5bf
000001a0: db02 cdc6 a986 fd3f e1ce e274 8430 f2bf
000001b0: 21cb 71b5 1d03 e43f 4233 473a 9048 0540
000001c0: 54e1 114d dce8 ef3f f049 3532 32b2 f13f
000001d0: 18a4 71ed d97f dfbf 5f80 ad1f 174f f13f
000001e0: 0898 281e c45e fcbf 90a1 34b8 0972 d63f
000001f0: b43c a769 9ab9 ed3f 7bdb fb1e da18 d63f
00000200: e2f9 7bf0 06b7 fabf 72c3 16ca 9f8f f8bf
00000210: 1d5f f689 1459 d0bf 9a42 2ffc 07a8 9ebf
00000220: d863 2236 01bc d53f d97b 9953 756a adbf
00000230: 4acb bc0e 992e f03f 3a0b c8be 3811 c03f
00000240: a2ae 4408 5550 ca3f 6e32 9d5f aee8 ffbf
00000250: 5a99 b32e ced2 d73f 9236 ec36 45c2 00c0
00000260: 88a3 7f10 6ce5 e9bf ee59 0200 8322 03c0
00000270: b38d 5bdf afaf d3bf 0f07 7d89 7488 c43f
00000280: 9b33 dfbe 77ee eb3f c31c 26e4 29ea f33f
00000290: 9f5e 03f6 5090 fcbf 3c45 24a6 3ba0 d3bf
000002a0: 08f3 9248 0e88 ef3f 2b49 ed4b 9dbc d03f
000002b0: be97 6e41 ee3b 63bf ceba 75ed 38f3 d4bf
000002c0: dc7e 39a0 b2f6 f5bf c45b 6244 8ffd fa3f
000002d0: 02c7 2a7b fa02 e2bf fa4e 1fb2 df3f df3f
000002e0: 5553 76a2 16b6 f13f 25f9 6d1c 5a38 dfbf
000002f0: 1196 0b61 3f6c e6bf e1e4 d295 13fd e93f
00000300: 6e09 7935 2f74 e53f e159 7209 6f46 eabf
00000310: 7ccc c33d b1d2 ecbf 7a3e 66da 6fc5 cbbf
00000320: 5108 b0d6 fac9 f7bf 1858 0f5b a3d7 d4bf
00000330: dbcb d972 cda0 fbbf a7dc aa13 b5a1 0140
00000340: 2b28 3d90 926c e23f efa2 a08c 9d1b d43f
00000350: f4dd fa44 0c3e e0bf 0eb6 8668 00a3 e2bf
00000360: c3af 3b5f ab2b e53f f0df c3da 5d1e f23f
00000370: 7573 db6c 8b41 e9bf a487 5485 61a5 f8bf
00000380: b5a6 d3e5 60be ec3f c20f 2563 99dd d6bf
00000390: 20cc f013 7925 eb3f a985 2a8e e84d d0bf
000003a0: 1045 4b9a f6e5 f23f 5ecd 9d29 0461 f13f
000003b0: b67f 4ec2 9871 f0bf 78a2 d17e 92c9 e13f
000003c0: 17e5 7c44 ad40 01c0 7d79 85ff 85f5 f0bf
000003d0: 18de 2e29 b808 b6bf dce3 6038 fd90 ff3f
000003e0: d47f 28e1 abbf e4bf d92b 6f36 a9cd f5bf
000003f0: 73e1 4421 00bc c8bf ddbe e250 58f4 f23f
00000400: bd1f d0e7 12fa d4bf 7724 26d9 2234 c33f
00000410: 013f ee63 daa8 f23f 0612 c6fb 5259 ffbf
00000420: c7f2 8534 f323 efbf 03a7 3cd5 f689 e83f
00000430: 7979 6039 dedd c1bf 2127 89a1 208c d3bf
00000440: 8062 2d99 0cb9 f9bf 5ee6 d3bb 3068 e1bf
00000450: ea11 7a2c e288 df3f 07ee 2d10 929c f0bf
00000460: 23a2 7bce ab55 f03f 2a6c 0d98 00b1 0040
00000470: e1ef 63a4 c337 ec3f 364e 9b54 c168 e5bf
00000480: dc5b 101f 664a e33f 0f6f 8c70 17c0 e43f
00000490: 7a54 9dce ef04 c8bf 7e9a 83c9 a41c fa3f
000004a0: 61c4 f42a f9b0 edbf 53cd 83b4 e5f6 0040
000004b0: 576c ba40 4116 d13f ef09 3e21 05c1 c4bf
000004c0: ab63 d998 6a4c dd3f 2476 8804 5d30 8cbf
000004d0: b66a d0e5 5a61 dcbf 6d04 2f61 40fd e2bf
000004e0: 703b 604a 7b90 cf3f d8f0 2090 02a6 f3bf
000004f0: f26f 19ba 5624 c3bf 54f9 f9e6 4d75 b8bf
00000500: e1a5 d172 3e13 e1bf 3250 ae26 683b e03f
00000510: adc5 7669 f39f ecbf 8f56 b294 5999 e73f
00000520: 2880 5869 87b1 eabf f138 ee0f f71b e7bf
00000530: 222e 077e 8f45 e83f d64b 2428 257c d4bf
00000540: fbd9 3f29 f910 fb3f 2b52 06fa 42dd fc3f
00000550: 8f12 97aa 5f2e f13f 5b90 d932 c766 e13f
00000560: af80 f30b ee75 da3f ab69 22d6 5840 fabf
00000570: db37 d2d9 d329 f2bf 22c1 64c3 eadd a83f
00000580: 40ef aaa6 c656 06c0 2f88 061b ec19 f73f
00000590: 2c28 658d 7164 e83f 9cb7 c184 fe4c e13f
000005a0: 9dd5 4074 eaed febf ca7f 8374 06cb bfbf
000005b0: 93b0 a952 00a4 f63f c07f 9a13 8455 f43f
000005c0: 9a86 d0a0 ea12 c63f a6e0 15a7 5a77 febf
000005d0: 31e6 0017 c4ac f73f 2bcc 73ae ad5f 0640
000005e0: fd12 ff35 4384 e2bf eaf9 fa78 3b05 f43f
000005f0: 1af7 a7f1 9f81 e43f 5cf7 ee6e d310 e03f
00000600: 6b92 c886 d827 d8bf 9dd0 22fc b601 f0bf
00000610: 0a14 d6bf eb6a bfbf e7c9 7ec8 82fd c53f
00000620: 264c e655 7a17 f43f 8f55 b7d4 f366 debf
00000630: 618e 1fd7 147a d7bf 5711 e51d 2b2b ce3f
00000640: 1ae1 1029 2dd4 f03f 2fac 4a1d 0833 eebf
00000650: bc7b b01e a701 e3bf c1f5 0e9b 637c ec3f
00000660: 9fd4 57f1 338b e63f fc82 8733 bced d73f
00000670: 42e9 030c 3c99 e6bf b5be 729e 798d dcbf
00000680: 4918 1d5d ac8c c83f a1dc ccd5 23b3 f8bf
00000690: 6faa 101d bffd f53f 274a f1c8 8c3d eb3f
000006a0: b8a0 621b 4a1a 00c0 8207 22e2 dd1a fc3f
000006b0: 4b22 b7dd 9ec1 dd3f 9675 7a5d 3297 f53f
000006c0: 80a8 7704 ffa6 f63f 13e8 0ff2 5dde a13f
000006d0: 49ed f7e8 2fad edbf 6f91 bab5 6b86 f4bf
000006e0: cdb1 96da 6af0 c0bf 904b 40cf c42d ed3f
000006f0: c3a4 dc26 cc58 57bf c980 5496 f55d f3bf
00000700: 381b 410b 2336 e0bf 584f 4b99 db60 f63f
00000710: 8695 0e69 6f13 f4bf 8690 13be ec1f e3bf
00000720: 89e9 85b5 bcf0 e3bf 51db 4204 2e9e e63f
00000730: df47 1307 34dd ee3f 53d2 b019 dc3c d0bf
00000740: cc6f 7170 11ef fdbf 55ee 6abf 4368 d7bf
00000750: 6f8b ee15 6537 ecbf 58da 6650 e243 f73f
00000760: f785 606d 83e0 c2bf 0691 5b6e 5187 fc3f
00000770: c6db 796d 1d24 d6bf ec45 3217 f16f e13f
00000780: 2a73 4a44 b50e 01c0 b755 610b f043 f13f
00000790: 35ec a22f 62b1 e53f 70b6 6bf5 016d aabf
000007a0: e49e 71e5 b876 e63f f46c ab93 9194 f3bf
000007b0: 1978 e403 6526 f6bf 2ade fb0d 3168 e03f
000007c0: c3c4 e59f 3e9d c43f e351 4202 acdc e1bf
000007d0: 041e d07d e573 e5bf 54b5 13e7 8e3f c9bf
000007e0: 318d 3cd4 2d1f f03f deb9 c778 deb3 e73f
000007f0: 2721 49fe f4a7 d33f 28ea 1955 f8da db3f
0.9467731004281572 -0.4340394413383663 0.002956406016247832 -1.172382602794064 -1.1312191065111785 -1.2473668018854842 1.0040834748879182 0.8417341931671211
-0.24275730808184798 0.5968423760165574 1.7914687897304429 1.0315555455249656 -0.30816334165900344 2.21287929512311 1.093837466905538 -0.27746159270410414
-0.2131315257911588 -1.556104636504282 0.13052082829747655 0.2672550076932929 -1.3535349939804575 -0.7345504749095337 0.471836228617498 -0.4133842393499488
-0.4078431245903202 -0.2797739192664166 1.5100595137594772 -1.8925390948969656 0.05518758125065487 -0.9412244450050372 -0.5516052719691715 0.6675738505409594
-0.04357995845496471 -0.7756902446571605 1.8213566365507559 -1.5244395981128078 0.6684920419789878 1.3451713028919203 0.1992757907715311 0.05136044920769129
-0.3747877708774904 -0.025543205651175543 0.49301838966849026 0.38468902337142374 0.5519896377619233 0.028028751967518938 -0.9599954067806145 1.49572538746174
-0.4776742480587405 1.157610261161277 -2.0179305205094655 -0.6840579567252051 1.8453767553002567 -1.1368450704439328 0.6253803771818164 2.660431342408999
0.9971753602285767 1.1060049020057896 -0.49217842281228874 1.081809161893055 -1.7731362512654432 0.3507103251345365 0.9289066375294142 0.34526684785617306
-1.6696843522946598 -1.5350644964312008 -0.2554370257653192 -0.029937863127829624 0.3395998982101083 -0.057452837424299914 1.01137643582179 0.12552556338786208
0.20557654288983424 -1.9943069205211503 0.3722415405340108 -2.094858578761724 -0.8092556307066028 -2.39185142523933 -0.30759808361309665 0.16041428292560808
0.8728598335234098 1.2446688568177684 -1.7852334604157603 -0.3066548464276655 0.9853583733998628 0.2615121118043528 -0.002347913115459981 -0.32734511556092805
-1.3727289446614384 1.6869042083032904 -0.5628635793311505 0.4882735480762076 1.1069551798038522 -0.4878144528992315 -0.700713815251847 0.8121431280370893
0.6704326671972873 -0.8210978683953806 -0.9007192808479796 -0.2169627968219066 -1.4868114839778352 -0.3256615056283194 -1.7267584310873108 2.203958657886307
0.5757534806409742 0.3141855119052214 -0.5075742099060663 -0.5823976556327481 0.6615807399771189 1.1324137254250637 -0.7892510534398826 -1.5403762062273723
0.8982395638278918 -0.3572753399096166 0.8483243360009318 -0.2547551525441017 1.1811433817968613 1.0861856103554923 -1.0277335729697206 0.5558559872561792
-2.1565804815878766 -1.0599422437004187 -0.08607054715582085 1.9728977396282437 -0.6483973882313827 -1.3627102018679038 -0.19323732017961567 1.1846545371626498
-0.3277632964895892 0.15002856829622477 1.1662238982716533 -1.959307654849114 -0.9731384301990936 0.766841331938139 -0.13958337594608475 -0.3054277017114249
-1.6076780303466478 -0.5439685505400111 0.4927297052711582 -1.0382252342232066 1.020915800642009 2.0864269141288974 0.8818071566342917 -0.6690374996637221
0.6028318983761625 0.6484486768926859 -0.1876506575451094 1.6319930907863234 -0.9278531874644039 2.120555315277366 0.26698333092799004 -0.16214050410424316
0.4577890865962739 -0.01376412077029971 -0.4434420818594548 -0.5934144876593003 0.24659672862659532 -1.2280297880197875 -0.14954647147067096 -0.09553992165635822
-0.5335991137082453 0.5072518115507647 -0.8945252475588653 0.7374694732886428 -0.8341710145505248 -0.7221637068885497 0.7584912740216547 -0.3200772182473747
1.6916438685708488 1.8040189520444396 1.0738217033078035 0.5437961571847255 0.41344786803348205 -1.6407097210527393 -1.1352118023528337 0.048568092681650535
-2.7923710843005267 1.4438286834415626 0.7622611772178565 0.5406487076668216 -1.9330849209921788 -0.12419166893550862 1.4150393704431152 1.270877911163538
0.17245228626511705 -1.9041391875053164 1.4796791933607774 2.796717989834652 -0.5786453299157014 1.2512774205966886 0.6408233375402432 0.5020539442700556
-0.3774319950337374 -1.0004186486303646 -0.12272523339750321 0.17179903783615133 1.255731902642546 -0.4750337197595735 -0.36682625778323624 0.2356923957796748
1.0518008808267667 -0.9437294551947896 -0.5939517592813597 0.8901842144475084 0.7044925416691007 0.37388520271456094 -0.7062053904221914 -0.44613495324572777
0.1917930082947257 -1.5437353469440398 1.374449838195371 0.8512634205492916 -2.0128366603349512 1.7565592606847251 0.4649426617802745 1.3494132663248357
1.4157705473431008 0.034899650381660895 -0.9273910093465157 -1.2828175638943227 -0.13233695672296478 0.9118370101808626 -0.0014249795598948879 -1.2104392883557458
-0.5066085071383446 1.3986469257406124 -1.2547449210918287 -0.5976470673017651 -0.623136858498854 0.7068090518213045 0.9645023477735285 -0.25371458538873987
-1.8708662407216137 -0.3657388085664242 -0.8817620685916675 1.4540732517904384 -0.14747660484958633 1.7830366431090297 -0.3459542817212732 0.5449147656492506
-2.1321816764087957 1.0790863461055389 0.6779032640837445 -0.051612912376964526 0.7019924622845477 -1.2237716453881236 -1.3843736793564914 0.5127187035677185
0.16104872519966848 -0.5581874889490418 -0.6703975159916244 -0.1972521427445978 1.0076120653619223 0.7407066687572372 0.3071262820490283 0.43523987112681306

layers.2.conv.kernel.radii f8 [4]
00000000: 0000 0000 0000 0000 abaa aaaa aaaa ea3f
00000010: abaa aaaa aaaa fa3f 0000 0000 0000 0440
0.0 0.8333333333333334 1.6666666666666667 2.5

layers.2.act.bias f8 [15]
00000000: 08ad df94 7f69 c03f ec98 b2ba 5c34 ec3f
00000010: c4ec 769f ced1 f53f df0d c457 7b98 fd3f
00000020: 36f3 f92a d4e2 f33f 4fa0 d0e9 a8a3 fa3f
00000030: 2aaf 3fe6 62a3 fd3f 051e ceed f718 f23f
00000040: f32c 8246 aeec f83f d3f4 1123 8a50 ec3f
00000050: ab56 3a98 1c88 fe3f da51 0bc4 1cec f83f
00000060: 6d37 34ad 1262 f43f d314 4f57 26bd fa3f
00000070: 1b74 9bbf ae17 f83f
0.12821955460763257 0.8813918730200192 1.3637224415859217 1.8497270038941378 1.2428781203045225 1.6649560101887066 1.852389239701504 1.131095818449354
1.5577833894956796 0.8848314938510619 1.9082303949739223 1.5576446207024817 1.2739435926227671 1.6711791430000644 1.5057818874986484

layers.3.conv.kernel.weight f8 [5400]
00000000: ff00 3d20 f333 c6bf 91c1 4f86 afec f53f
00000010: 269e 3e76 960d ecbf 0ae2 d095 b430 b13f
00000020: 4c92 60bd cd78 efbf c172 6804 08aa db3f
00000030: 0c6a c5ba 364f a63f 9c60 a2d7 a074 f4bf
00000040: b728 94ba 05ee f03f 6936 85d8 4797 da3f
00000050: b5d5 65c7 84b4 e73f 6345 6557 8394 fabf
00000060: 54b3 63a2 3ee6 e1bf 886e 6135 eae2 fcbf
00000070: 11cf 8570 e6a1 f6bf eccd 3b8b 26b8 ba3f
00000080: 5703 d781 5911 f83f abf4 6506 e448 febf
00000090: 20ed 4acd 0758 dfbf 0ec7 4a08 ddad e53f
000000a0: f92c 01be 016f 10c0 2f92 aeaf 5c60 fcbf
000000b0: 7c55 c065 81b8 f23f f321 96df 62a6 f8bf
000000c0: 8ba5 7979 60e0 f1bf f28d ac7c 8851 f7bf
000000d0: 5bbb 4257 d21f c73f 1642 10f8 7dc7 c8bf
000000e0: 2360 6a77 696f 00c0 0417 6079 a6b3 d83f
000000f0: 6223 e648 5b77 d3bf 3a33 ed74 cb0c c9bf
00000100: 06b0 fc2f f25a 1240 0d78 ea00 6bf1 f13f
00000110: 8851 121a 324f fe3f f2bc 83e6 834a f83f
00000120: c585 d50f 8f89 e33f 865a 7f38 1c81 973f
00000130: 1563 214e 13be e4bf e708 ee6e ac03 eb3f
00000140: f04e 75ca 24cb e5bf da18 7047 c23f fa3f
00000150: 329a 190d c31b f53f eef5 ac48 2bbd d33f
00000160: c0ca 6550 4102 fa3f eda6 615c 3a83 ff3f
00000170: 8749 3d84 2701 f83f 8c19 d0b2 185a ea3f
00000180: aaa0 6757 4be0 f6bf 1a0e 7397 7278 0440
00000190: ee5a 6a8a 8dfe e03f 7e78 5b1c 133f dc3f
000001a0: 6e8c 6643 3b40 eebf d256 51d1 5687 e2bf
000001b0: 3d5f 3344 1ec5 a4bf 6cfe b994 5016 e53f
000001c0: 1af3 ec62 c45c 0540 0f5e 4ffd 0341 f23f
000001d0: 3f33 8c02 ea6a e7bf 544f 9a14 5be6 f83f
000001e0: e652 6579 4f1e f3bf 8b37 39cf 47e3 fc3f
000001f0: cb51 76c8 4264 f53f e429 46c2 9fb7 c33f
00000200: 6b0c 3038 d8fb f83f 4bbf d09f 57d4 f13f
00000210: cdf6 daa5 ee30 b2bf ec61 9349 6f52 f1bf
00000220: a56d 890c 5f9e f73f c7a5 a2fb c157 ed3f
00000230: 6207 2171 4389 e63f 3f46 608f df55 e5bf
00000240: 8b15 7900 8a9d 0240 0335 402d 468f 0340
00000250: 7fef 9084 91a1 eebf 30d1 6e1f 41c4 dc3f
00000260: c8e6 2493 4bae 0040 9447 8058 59ed e2bf
00000270: 2462 fc93 6523 983f dec6 4162 b32d dfbf
00000280: 80d9 50c9 da93 0140 3091 5366 07f5 db3f
00000290: fbd4 0d52 3209 e13f 7924 e48e 1b51 ba3f
000002a0: f924 42da e501 f13f 1a33 bbaa 8507 db3f
000002b0: 2939 289a 5621 e5bf 9c0e 94d1 b604 f43f
000002c0: 1b47 0b1c ebe2 e23f 1b81 99be 6103 f43f
000002d0: 428b 90c9 f367 e63f 19b8 ebc3 c737 ed3f
000002e0: 81df 3251 0412 f8bf 0be5 213e 3b31 e4bf
000002f0: 3e4b 4b73 8312 ebbf aea9 c87c 8221 d2bf
00000300: 9fea 9152 0fc1 ab3f 36fa 454e feb1 fc3f
00000310: 7d5b 0f9d eee1 e3bf e5df 1c04 5a6b f1bf
00000320: 07ea 6c43 8de1 f5bf 40ec 5704 2dcc f4bf
00000330: 8be5 bcbe 8117 ea3f 446d 0791 de9b dc3f
00000340: 89e5 5722 c66a e4bf 62ef 448c 2cbd e8bf
00000350: df6b fc67 d452 0040 929a 6eb7 df59 edbf
00000360: 3524 2042 2201 f43f 3201 c429 09db cabf
00000370: 9c6c 9e57 28e5 ef3f 71f5 434e 996a e5bf
00000380: 8791 dae5 a432 af3f 522f 979f 5edc f3bf
00000390: db9a b852 f0d0 f43f 40eb 50c6 6f28 c7bf
000003a0: 953f 2761 1c10 ea3f 13dc dff6 5a52 d93f
000003b0: f86e 15ca a8d9 d5bf 4ecb 11a7 646c edbf
000003c0: b222 9f08 6a6b fbbf df7d c332 edc9 fcbf
000003d0: 5cc7 e812 562c f13f 5e1e c07c b0a5 e2bf
000003e0: a2be 407f 067b f33f 537c 51ec 6891 ee3f
000003f0: ddff d949 a116 e7bf f375 1ee2 0b2f c73f
00000400: 9e2b e1a6 05d1 b0bf 3b27 9522 9a55 c33f
00000410: 9e8d cc35 33df f8bf 9e06 dce8 9fcb dd3f
00000420: 3ccc d0de d576 ddbf bfa9 4f26 3235 d23f
00000430: ea9b 32f2 27ca e73f fa61 4f08 d9a2 d5bf
00000440: 3aab 1301 5954 0140 ef74 a640 bb8f c43f
00000450: 63fe d069 a53d df3f d7a3 faa4 bb49 d4bf
00000460: c73d 4ee1 d18f d33f d959 0c4e fd14 f4bf
00000470: 2a13 954f 8d24 e33f 9617 0202 21d0 d73f
00000480: 1496 51a9 8d07 fa3f 138f c03a b3c1 f33f
00000490: 9255 6265 8e9a c0bf 2e5d 7a6d d63a 9c3f
000004a0: 87c2 a191 3b41 bb3f 1226 75e7 3e59 f23f
000004b0: 2277 6326 67b3 acbf 0d44 187b a9bd e2bf
000004c0: 657e 9109 2f60 ea3f b62f 1d3b da58 f23f
000004d0: a037 c69f a57f e6bf b7ce 8dea 6f14 c83f
000004e0: c852 88da ff47 e8bf d70d 3c29 835a edbf
000004f0: b127 0b5b 1098 f53f 7726 6583 6c32 f4bf
00000500: 45e1 f8fd 7774 dc3f c039 89a4 3fa0 04c0
00000510: 7d64 17d8 4759 d6bf fffe f9e3 2e9a d33f
00000520: e0c9 bb58 7cff d8bf 770e d48f 4b72 f7bf
00000530: 95b1 91b3 6b04 e33f 2f80 a5cf 1c10 e33f
00000540: 1175 9e92 c2f3 e7bf 54c6 e6d7 0815 fa3f
00000550: 51ad 9e8d 19d4 f23f 9563 d47d eb0c da3f
00000560: d460 c441 97bf d33f 7e39 251d c630 e93f
00000570: 5d18 6cc3 59a0 f1bf 485d c498 d1eb e0bf
00000580: 0176 2ce5 3c56 ed3f cc03 df80 1eb0 ef3f
00000590: 2b76 750d 7a75 f6bf e02c 2a48 3c75 d2bf
000005a0: 38d3 a2ac 64de e3bf bb52 bf4a edd2 a63f
000005b0: 510f 7b42 7acb f6bf c5bd 37c8 6a98 fabf
000005c0: e1a7 1c10 69d5 fbbf d76a 1322 017a ffbf
000005d0: e959 ec6b e2e0 e7bf cf75 3bea 0bac ce3f
000005e0: 679b 8659 19be b53f 9feb 8e17 ab4a ed3f
000005f0: b9ce 29cd bf11 ec3f a09b d0d1 a74a e53f
00000600: 0bd9 8b66 a5bc f1bf 7fe4 9695 a3ea f7bf
00000610: 9a2d 2f80 e3eb c43f 7ee5 c494 1453 b73f
00000620: 72c7 1c5a fbb2 ddbf 0c35 0000 824c ebbf
00000630: e85c 659a 321b d03f 2be2 67c2 b987 e33f
00000640: 133c 4c8f 5f52 e53f 6ca6 9713 0149 cbbf
00000650: c0c1 54d7 c166 ea3f 5d5a 7033 63b3 a4bf
00000660: c1ab 27d5 394f d6bf 6193 91ef fb7d f0bf
00000670: 1253 41f7 f4c5 ee3f 7388 2653 3847 e3bf
00000680: ea91 3fac cf92 e1bf f36c 5831 06b6 f3bf
00000690: 1118 c0ba d229 e7bf 4d40 7ae8 3a74 fd3f
000006a0: e067 e3cc abc7 e2bf 3f4f 6857 b618 f9bf
000006b0: 6e90 0d2e a37d cb3f 99d4 e7df 9a05 b33f
000006c0: 0b22 af44 ef6f eb3f b612 3952 183b da3f
000006d0: 34ad 31dd 6358 fb3f 3bf2 806e e83d b93f
000006e0: 62d4 8d62 9af5 e53f 5180 6439 e814 cf3f
000006f0: c292 3070 8e99 edbf 2a64 a1be 2a3a ed3f
00000700: 16bf 35fb 51fe e9bf b2a5 d302 743e f83f
00000710: e576 5638 0a2f efbf cd6b b33c d554 dd3f
00000720: b3d5 60d1 1561 e2bf f3d6 d430 28f6 d83f
00000730: 2d24 1666 c37e 0240 273b 30da df8c e73f
00000740: 1136 b565 d589 e0bf c1a7 8d69 f840 00c0
00000750: 005b 9790 5b00 d23f 691e b948 54ae ec3f
00000760: ec11 a2e9 fed1 f6bf 7b49 017e 310a e2bf
00000770: 3220 d459 4463 853f 9a31 45a7 467d e6bf
00000780: 052b 5a3d e7a9 04c0 9efa bbce 8202 ac3f
00000790: f451 9ac8 6f52 cbbf 2b9b c654 2828 743f
000007a0: 961c 447e 9b29 e93f 255f c726 c48e d1bf
000007b0: 0ba6 dbc5 751b ecbf 924a 2e0c 3e93 f33f
000007c0: 4ab3 df3c 87a6 eabf 246b 567e 49ae e33f
000007d0: da44 bafb 0b2a e3bf f326 d9fa 17ff eebf
000007e0: 7c5b cd7c 71f9 ed3f 329b f51d b92e d73f
000007f0: 2869 22d4 7984 fc3f b145 45e7 db5f f23f
-0.17346037935386246 1.3702845808548754 -0.8766586598839623 0.06714943559280342 -0.9834965418600148 0.43225288801640366 0.04357310323640115 -1.278473703690941
1.0581109321815754 0.4154834379631667 0.7407859701622131 -1.6612580694093928 -0.5593560382527394 -1.8053991398982436 -1.414526404897462 0.1043724145818527
1.5042357513304603 -1.8927955865795336 -0.4897479538737617 0.6774735605197024 -4.108405083486326 -1.7735258925032544 1.1700452780399635 -1.5406216367574614
-1.1172795052646929 -1.4574055547790263 0.1806586195065972 -0.1935880147216415 -2.054400380071472 0.3859649834924854 -0.30415994757691156 -0.1957029648714526
4.588814496801211 1.1214399371888277 1.894334890214937 1.518192196319259 0.6105418500193812 0.02295345396836492 -0.6482025648102502 0.8441984335516083
-0.681047816683046 1.6405661383192212 1.319277812168036 0.30842096421460397 1.6255505695850587 1.9695380791330834 1.5002818265535056 0.8234981052817587
-1.4297593511819664 2.5588123161303544 0.5310733512331731 0.4413497712065534 -0.9453407589356979 -0.5790208900677618 -0.04056639273193106 0.6589739708724216
2.670296452385071 1.1408729453013426 -0.7318010377654004 1.5562392048641032 -1.1949000112555779 1.805488404719173 1.336977751784718 0.15404126153983022
1.5614854998427983 1.114341377524357 -0.0710591463966594 -1.0826256631900106 1.4761648645133871 0.9169626154663825 0.7042557916213179 -0.6667325783075241
2.3269233738853408 2.4449580702990956 -0.9572227086241439 0.4494784171067918 2.0851050849567834 -0.5914732674157102 0.02357252803548894 -0.4871643504658162
2.1971946456716864 0.4368303775102218 0.5323726275079531 0.1028001045089172 1.0629633451192702 0.4223341147706364 -0.6603196154481213 1.2511509119657722
0.5901999995932984 1.25082563832263 0.7001894890603142 0.9130591227128689 -1.5043986484360803 -0.6310096944354496 -0.8460099460447521 -0.2832952707855395
0.05420730479177859 1.7934554154923155 -0.6213296001031804 -1.0887088928848183 -1.367566359882973 -1.2998476190248454 0.8153694844578906 0.4470135132121025
-0.6380339308517914 -0.7730925311693506 2.0404441951663865 -0.9172209341675901 1.250276811888637 -0.20980944194162415 0.9967233382516443 -0.6692625549909917
0.06093325906593621 -1.2413011774069287 1.301010439996097 -0.18092152770426573 0.8144666574025786 0.3956515704043692 -0.34140987143267365 -0.9194815886570298
-1.7137241684705882 -1.7992984755472816 1.073324273933813 -0.5827257572681892 1.2175354929749251 0.9552502265540944 -0.7215124552167215 0.18112324276891875
-0.06568942379196449 0.15104986847500776 -1.5544921971821632 0.46555326214011383 -0.46037813910806213 0.2844968198902755 0.7434272509025253 -0.3380644398835383
2.16618538705134 0.1606363359141265 0.48813758214598674 -0.31700030432926724 0.30565306665900177 -1.2551243828544243 0.5982119135229358 0.37207818218336663
1.6268440832149098 1.2347900671965746 -0.1297166819610252 0.02756819766235912 0.10646412187066732 1.1467885056794143 -0.05605623572931352 -0.5856521038241468
0.8242411791688481 1.1466924962178218 -0.7030819054214028 0.18812369301632767 -0.7587889927113673 -0.9172988705981265 1.349624972952807 -1.2623105175611309
0.4446086864659445 -2.5782463888528753 -0.34919925787614386 0.30628559363684354 -0.390593611387116 -1.4654040926260714 0.5942896372994705 0.5957168632121518
-0.7485058654453117 1.6301353868151596 1.1767821819328967 0.40703856742907735 0.30856877729958154 0.787203843044878 -1.10164810501876 -0.528786466954366
0.9167770839737274 0.9902489201559717 -1.4036808515296666 -0.2884054856046543 -0.6208976146504943 0.0445779947037059 -1.4246771428015175 -1.6622112103467412
-1.7396021489498639 -1.967286236866746 -0.7462017162204663 0.23962544381258374 0.08493193088234606 0.9153647861597739 0.8771666533561621 0.6653632257410784
-1.1085561757768712 -1.4947849124276045 0.16344875105856432 0.09111145622309455 -0.4640491847995839 -0.8530893325820741 0.2516600139401377 0.6103180691707782
0.6663053320679658 -0.2131654115358289 0.8250436025319274 -0.040431118039283766 -0.3485855657187891 -1.0307578428412045 0.9616646603777517 -0.6024438499482713
-0.5491712917542462 -1.2319394996218846 -0.7238553664653883 1.8408764916566895 -0.5868739129757579 -1.5685332693437457 0.2147716498249141 0.07430427519269002
0.8574138967024408 0.40985687284073025 1.7090796127693695 0.09860089013904709 0.6862308430560342 0.24282553484317984 -0.9249946776586386 0.9133504603624989
-0.8122949510998037 1.5152473555011565 -0.9744921779963219 0.45830279281443326 -0.5743512238902241 0.39002423065845376 2.3118961310870163 0.735946584843849
-0.5168253885728423 -2.0317238088946117 0.281271830751777 0.8962804241536563 -1.4262684942524357 -0.5637443028484052 0.010443243018485846 -0.702792479228765
-2.5829605858938316 0.05470665715801214 -0.21345326705035428 0.004921109717918519 0.7863290277608879 -0.2743387583445716 -0.8783520569242581 1.2234478450597277
-0.8328281582777006 0.6150252788096151 -0.5988826672129577 -0.9686393641834158 0.9366996228735469 0.3622267525264987 1.782342747354571 1.1484030756003956

layers.3.conv.kernel.radii f8 [4]
00000000: 0000 0000 0000 0000 abaa aaaa aaaa ea3f
00000010: abaa aaaa aaaa fa3f 0000 0000 0000 0440
0.0 0.8333333333333334 1.6666666666666667 2.5

layers.3.act.bias f8 [15]
00000000: 378e f494 c353 f83f f77f e185 43f0 f33f
00000010: ac7d dbc7 5676 f33f 8a46 4436 98d4 d43f
00000020: dd23 120c 6f84 e23f a35e cad6 fe0d e3bf
00000030: 4d33 a235 8e79 e53f 3986 16ee d59f e63f
00000040: a8c7 d736 c253 e43f 614f 26db 0ce1 c83f
00000050: e5d9 df52 ce7f ee3f b8cc 8a28 531c f33f
00000060: 90c8 00bb 0db5 c33f 4c5f efee 6502 f23f
00000070: 386a 20d9 6bbb d0bf
1.5204501932684147 1.2461581449242638 1.2163913542679934 0.32547574328882745 0.5786662326582889 -0.5954584307791787 0.6710883185893209 0.7070111894756287
0.6352244444990349 0.19436798763910715 0.9531013125077236 1.1944152434996749 0.15396281844147497 1.1255854924583728 -0.26143928722163734

layers.4.kernel.weight f8 [120]
00000000: f7e1 f0d9 9441 f5bf 782c 0461 1ce4 05c0
00000010: 2803 b59a 2e6d 07c0 228b 4026 2a18 f6bf
00000020: c473 360f 8eeb 1240 81b2 ed9c f834 ee3f
00000030: 2190 1fe0 a053 7abf 77d3 b389 97d9 efbf
00000040: 8ec9 7c5b d458 fc3f cca5 aaf0 4c83 0940
00000050: ba30 0c5a 4025 f53f 9477 7a01 d83b eabf
00000060: 2b62 d0c5 9fca f1bf 76dc 4fb4 c900 d23f
00000070: 8b2b 413b 6cc0 dabf 99d7 907d 19a2 05c0
00000080: 0c16 f4f5 ac4e a63f 60fa bfdf 35e1 d6bf
00000090: 3290 7a40 96d8 e9bf e8a2 2bbe 0073 04c0
000000a0: 24dc 7b9c 83d3 e6bf 5e7f 5dc8 0e7b e23f
000000b0: d38f ce95 db35 01c0 10f8 f044 7f60 fdbf
000000c0: b6da c4fd 8377 fa3f f0bd a416 620c 0c40
000000d0: 21de dfa0 0ced bd3f 1e53 3e8a d23e f7bf
000000e0: e066 176c 3a82 f1bf 4003 e621 126c efbf
000000f0: 1f5b fc4c ffa3 d53f aed5 3d57 61ee f33f
00000100: 42fd c70d e17f a8bf 637f 51e5 21ee e0bf
00000110: 4aef ddc1 1e14 01c0 896a 6b37 a97a f9bf
00000120: 35b0 1389 4780 dabf cde5 3035 722d e6bf
00000130: 8780 839d 18a5 04c0 51d7 811b 9ffa fcbf
00000140: 8a50 8efb f162 d4bf e2ce 8416 24b4 e8bf
00000150: bad9 c10a 64e7 d1bf 18a6 46c8 4879 f1bf
00000160: 61fd cdce 40af 1240 18af c2af 7eef ed3f
00000170: 2d54 c49b fd73 e3bf af75 eae7 37c9 cdbf
00000180: 50dd c489 c78a 0840 099c b50c a878 0340
00000190: 525e bebc 676a ecbf 998c 5bd8 f767 c3bf
000001a0: db18 416f f075 fb3f dfea b4a4 aab8 0040
000001b0: b9a6 c1f0 b299 0a40 a547 e1fd 7494 fe3f
000001c0: 1c3b edd3 eb43 d63f 66a8 76f7 ca9d f23f
000001d0: 300b 40ba 7bfb c4bf bca5 8f3d a441 ef3f
000001e0: f0b6 03fd 7260 09c0 149f d88f 90dc 05c0
000001f0: 0ae5 ccd5 fa0e eb3f 179f 7061 a288 d4bf
00000200: 6019 8b6c 0328 f1bf d6b9 86fc 1bf4 ee3f
00000210: 0f9b 9602 2a7f f73f ec1f 90d6 eca7 c1bf
00000220: be84 3484 3237 0dc0 acf2 ba58 e2e5 e13f
00000230: f794 fee1 a208 c3bf d74c af51 c378 e0bf
00000240: bc1d d0a5 843e f43f 8e18 5a1e c470 0240
00000250: 1129 00a0 d0ee fbbf 08ef 04b5 c6ff fbbf
00000260: 34bf 9a06 bb9f ecbf 9e17 3a29 3c06 f8bf
00000270: 77e2 b6cb 7f11 f3bf c291 6030 3b4c f5bf
00000280: a510 99d3 9a42 0740 ff46 7f23 517e 0340
00000290: 9ff4 2ef5 0ba2 0940 4d81 db6a 4908 e93f
000002a0: 1084 07cf 7cf1 e83f 8d8a a930 98ed e8bf
000002b0: c3d8 11c6 496b f1bf 74a1 34c4 76f8 f3bf
000002c0: 42cf 66c8 120b 0840 ac86 a6d7 eae6 fb3f
000002d0: ec75 77d8 44fd b9bf b4e6 f191 ec5e f23f
000002e0: 8f72 96c6 176c de3f bf7d e548 8ea4 c0bf
000002f0: 35e1 9495 55a0 0440 9be0 6c9c ed32 e93f
00000300: 0d29 ed42 b251 0240 46f2 5675 a3dd 0340
00000310: 1282 43ac 1ea7 b0bf e1e5 4966 5f21 00c0
00000320: 60fc 3854 460e dcbf fbcc 02d2 5203 c7bf
00000330: 1495 334b 1749 e53f 0ca8 030a 5a87 f1bf
00000340: 9ba4 5bb3 c40d e63f 7582 2813 949d ee3f
00000350: fc9e e559 2815 ec3f 3773 a307 d0ce e43f
00000360: da71 4c3b ea9f 13c0 01ee abb2 d785 f7bf
00000370: 6035 8995 e387 f1bf 3bcc 3040 2f55 e0bf
00000380: 6f48 9e5a 4422 0240 38c7 6745 b15e eb3f
00000390: 74be 6303 ffb3 0540 641f 7b62 3c06 f4bf
000003a0: ce3a 873e 345e a63f 2cf1 8e27 58e2 e2bf
000003b0: 061d a9be b7dd f9bf 16e0 a743 1c73 eabf
-1.3285110963171272 -2.7363822535895075 -2.9283115469446734 -1.3808995718215518 4.730034101198672 0.943966204167353 -0.006427410526132633 -0.9953115167141807
1.7716868947723898 3.189111595351937 1.3215945737347696 -0.8198051480173825 -1.111968777380876 0.2812980900629961 -0.4179945543916623 -2.704150181753857
0.04356899740563955 -0.3574957547242885 -0.8076888331747851 -2.5561537606302984 -0.7133195930790674 0.5775216973670287 -2.151297731748835 -1.8360588734644843
1.6541786110735024 3.5060464638734103 0.11689833572005927 -1.45283750535345 -1.0942939970322456 -0.9819422399597002 0.33813459890500214 1.2456983001587605
-0.047850640232349764 -0.529068897139933 -2.13482428988019 -1.5924465336635498 -0.4140795553819346 -0.6930476225745054 -2.580613356185555 -1.811186892938583
-0.3185391384697672 -0.771989864332195 -0.2797479729701099 -1.0921104262619163 4.671145659754388 0.935485213548847 -0.6079090158770036 -0.23270319770828737
3.0677634013369826 2.433914279262812 -0.8879889189146957 -0.15161035599075914 1.716293749415448 2.0901692264281873 3.3250483330819773 1.911244384497402
0.3478955812069431 1.1635236422103161 -0.163924661581484 0.9767628862729718 -3.1720943228491407 -2.732697604940663 0.8455785918987726 -0.3208394958078186
-1.07226889037846 0.9672985012201092 1.468545923338471 -0.13793716885288576 -3.6519518211867696 0.5593120320332523 -0.14870105776677864 -0.5147415728955832
1.2652632214611534 2.3050615664715854 -1.7458044290565946 -1.7499453612389875 -0.8944983605378867 -1.5015222177912402 -1.1917722661584358 -1.3311111345038715
2.9075218707167374 2.4366781972138365 3.2041243700937936 0.7822615706500443 0.7794784587423482 -0.7790032339510887 -1.0886934029672808 -1.2481601394921116
3.005406919133663 1.7438763069007264 -0.10152082714872507 1.1481748295758907 0.4753474654515139 -0.13002184447667095 2.578288239103268 0.7874668173963245
2.2898907879472348 2.483221928325551 -0.06505004602104972 -2.016295241480052 -0.43837125992644665 -0.17978892569008295 0.6651722401408358 -1.0955448523695877
0.68918070822578 0.956735646646918 0.8775827174949593 0.650245680731678 -4.906166960278336 -1.470176408706607 -1.095676025509725 -0.5103985074732756
2.266731937365925 0.855309138829603 2.71288874290604 -1.2515224310791035 0.043687470085946964 -0.5901299259781232 -1.6166303107909825 -0.8265515633966085

layers.4.kernel.radii f8 [4]
00000000: 0000 0000 0000 0000 abaa aaaa aaaa ea3f
00000010: abaa aaaa aaaa fa3f 0000 0000 0000 0440
0.0 0.8333333333333334 1.6666666666666667 2.5

layers.5.kernel.weight f8 [240]
00000000: bbeb 9f0d 6b91 e83f 6d2f aeae 575a 0040
00000010: 4720 e042 f68b f03f 032e 8f0c 4623 ee3f
00000020: 5951 618b fcfc e63f 82af 8a54 eee0 eebf
00000030: eeae f03a c8d9 d93f bbbe 5ad1 a1d5 f4bf
00000040: 58e7 5daa 20b5 fdbf f73e 27de 8dc2 eb3f
00000050: 51ab 471f 831d f1bf 827a 1a12 a61f f2bf
00000060: b5b0 1e10 24c9 e13f 2ff2 00bb dca7 fc3f
00000070: 8c36 a4d0 a01a d1bf 4628 602e 4087 c13f
00000080: ab54 7117 520a cb3f a58d 56d6 605c 05c0
00000090: fe99 77ba 30a3 cd3f 1d1d c79f 9348 f1bf
000000a0: fef5 d06b 7263 ecbf 845a a0ec da36 ec3f
000000b0: a8f4 d1a5 bead bcbf 3f06 f84f 18b2 a8bf
000000c0: aa36 7e2e adb3 e73f 64e9 9f12 42ea fb3f
000000d0: 35da c46e 6125 f93f 1d06 1e57 cefd f63f
000000e0: bd76 871c 8f07 0540 9a32 ac2b bb9a e83f
000000f0: 29ce b2c9 f42c f2bf 8e8c 41ed 7b06 aebf
00000100: 93e9 9614 bb71 d93f 523e b615 e1fd c3bf
00000110: 1109 8d4b 7386 d23f 2487 dbc1 0c9f e13f
00000120: 4495 a2bd 536f ea3f 72f3 f594 a675 d33f
00000130: 7b37 e453 1b43 e2bf 9e37 ce97 f3b4 f3bf
00000140: 36a6 ef2e 4db6 f73f b440 b37a 1641 b13f
00000150: 294d 9070 6005 b23f 5951 8a3f 3bd1 0040
00000160: 1d58 08a5 dbc3 f63f ae71 163d 437b ec3f
00000170: 9de9 b326 a484 d73f 3e92 78c2 858d e5bf
00000180: 5660 924c 5554 fa3f d969 bc44 ea0b de3f
00000190: 9dc5 47d0 cde5 e3bf 4e69 d9cf fe94 f13f
000001a0: 0050 aabb 557d f53f 0875 36c3 8e84 e43f
000001b0: 9619 21fc b1ae eabf 8d6f 083d 9547 c93f
000001c0: 5214 0113 980f 9cbf b4b3 cd0d e5da 03c0
000001d0: aa71 3e70 06b7 f0bf f731 e17e d859 f8bf
000001e0: 025a 2076 2856 f5bf b5d3 c6ed 7065 10c0
000001f0: 1fa9 10c1 670c 1140 8ee9 a800 2d5a f03f
00000200: 0306 254f 4273 04c0 01e7 f0b7 433e 0140
00000210: 622d 39e8 2810 f2bf adc5 0a01 3db4 f8bf
00000220: d6a3 c1ad b85b 753f f43b 068e e664 c23f
00000230: 5428 7f32 fdfd f33f 80fa bd12 f587 e23f
00000240: 95e9 ca4c 94f0 e63f 44de 71ee 4696 1140
00000250: 5a34 33c9 2aa9 e8bf 76be 644c 9da7 f9bf
00000260: 6dd6 db70 24c0 fc3f b10b da20 09ac debf
00000270: bd1c 2a07 b209 f0bf f9e8 c92b 52df d4bf
00000280: cc20 4a2d e883 ee3f dda3 dea2 0ebf fa3f
00000290: 3d14 4908 1aa8 00c0 1e70 4d41 a9e0 e73f
000002a0: 93f9 5f38 31f3 e0bf 60e3 36cc 0d1a 0fc0
000002b0: 8fdb aa70 d3dd 0040 04fd 914f 6ad9 fbbf
000002c0: 1383 c0c3 ce76 f3bf cf0e 4d87 c34e c03f
000002d0: 4ef0 4472 00b9 b3bf d7ab f6fc 44f5 d93f
000002e0: 1953 da13 1fdc e33f 1047 aa9a 323d 0c40
000002f0: 1f04 f800 c57a b3bf 7387 7921 51b0 ecbf
00000300: ff3a 98ac 3bdc e73f af69 7925 ac1d c13f
00000310: faa9 44fe 1736 d73f d8ad af6b 8e68 f93f
00000320: b331 c51c df5e f0bf e1e4 b22a aac0 da3f
00000330: d7c6 5807 164b e63f d650 ad5d adc2 9d3f
00000340: 97ee 55e3 c6d4 f83f 8e04 a04c a3cd a6bf
00000350: 6c38 d3b1 98e1 f3bf 04f6 bc51 155f fbbf
00000360: 69e2 e655 8b8e c6bf 2aba 4f9e d91f e63f
00000370: a26c d591 fb37 dcbf 7fe7 e762 8159 d4bf
00000380: e63c beec 085c d4bf 3663 0592 f1ef c93f
00000390: eb33 dc7e d84f edbf b5cf 3ee4 627d d9bf
000003a0: 60e9 093b 6859 d23f 798b f9d2 154a dabf
000003b0: 6147 a577 ccf1 f03f f7a2 2f3e 5f59 f43f
000003c0: 1514 859c 929c e7bf 85eb 5d9c 3009 cabf
000003d0: 6bdc 54b1 576f fd3f fef1 f55a 7dae c73f
000003e0: f173 d491 c2ce c5bf fc98 cb79 8198 bc3f
000003f0: 4a8a ca49 1d95 e13f 8c2f 56b3 c2df eebf
00000400: 2496 155d e6b2 debf 6a3a 1b3d c3f0 d5bf
00000410: bc8a 6a3d 9b19 dc3f 4a4d b1a2 e487 e2bf
00000420: 17aa 35fd 58ca d2bf b2b4 957d e944 f73f
00000430: f96a 90f2 912e 02c0 e450 ba60 285e eabf
00000440: 0d49 9ef8 fc77 f23f d528 9034 dd03 e1bf
00000450: f93e f3c6 805f ebbf 0ac4 38dd 60fe d3bf
00000460: 5428 4722 277d d53f 55ec 5169 77fc f23f
00000470: 5e60 18e2 05e5 d1bf adcc 987c 0055 d63f
00000480: adb0 191f c1ce fc3f 7827 2881 ce48 ff3f
00000490: f564 a56c 6877 fe3f d1e1 18ff 24c0 eebf
000004a0: ee0b 2c84 1bae ba3f eec0 b3cb 1686 fd3f
000004b0: 5563 b078 2d7a f93f 496b 6d4e 36b9 eb3f
000004c0: 0c51 2972 4ccd e73f 07c8 710f 7336 01c0
000004d0: 9778 6dfd 7e4e efbf fc9b 9508 0efa e9bf
000004e0: cc91 49b4 1f70 ef3f a931 5750 ce99 0440
000004f0: 0360 61cd 21c9 e63f b794 0230 b82f f3bf
00000500: d065 a9d4 1606 f33f 6749 18ff c335 a23f
00000510: afa5 c60f 180e f9bf 3d2f 0366 f268 f7bf
00000520: 7750 e368 66ab debf 7b57 26e0 fe97 d83f
00000530: 82e6 2ffc c632 f23f e338 1e38 acef e1bf
00000540: ae51 52c2 09a6 e6bf 5770 18c3 5e7f 09c0
00000550: 8113 2c65 9f2c fa3f 3dd3 4329 8f27 aebf
00000560: 1b14 6a93 d8d1 7bbf 49b4 c82f be5b f23f
00000570: 5cd5 a67e 6687 d3bf 19ae 91ab efe6 e1bf
00000580: faa6 6b05 c57d b7bf 4493 96c7 d375 d53f
00000590: 1527 dd7b 3929 f13f 07be 5be0 8f36 cbbf
000005a0: 8f7a 1794 19af fb3f 5684 b4f1 08c0 02c0
000005b0: 4bd1 965d 41ba 11c0 b4c3 55ed 3d62 e43f
000005c0: 65d0 d592 150a edbf fbf1 665c 7285 00c0
000005d0: 7ea1 7a62 c44f ca3f 52d6 626b f672 d23f
000005e0: 8f06 fdc6 7a7c e33f d5eb a527 0672 da3f
000005f0: 5fce 9642 53d1 dbbf 02e5 d19c 21df c93f
00000600: 5954 06f6 e85e f7bf 47dd 2e5e c9ec 06c0
00000610: f1ad 3eeb 847d d13f b853 70ab c36b d23f
00000620: 6c89 543b e9fb debf 48d7 bc03 3891 debf
00000630: 35da 2265 f99f e8bf be8b e600 c696 cdbf
00000640: 47a7 73db fecb f2bf 100b dfda 1405 febf
00000650: a071 e4ab 47ca ed3f 6695 790f 1d50 ffbf
00000660: 6c10 6786 647b fabf 8a56 a854 df05 0540
00000670: f486 a80e 9771 bcbf 65d8 80bd 2bf2 f4bf
00000680: 9c39 2f37 9924 eb3f 427f 9f59 fd65 fc3f
00000690: 5e2b 3fcb 9ca7 e93f 5b13 d2cf 6957 eabf
000006a0: 009f 910b f2a9 0240 9510 944d fb27 ccbf
000006b0: 473e 8953 43a4 f03f 037d f758 e007 e3bf
000006c0: 1c90 b96a 1842 e6bf cc65 fcc9 c53f 0a40
000006d0: 8bf1 d945 41e0 f8bf e4a1 6bbc 116e f53f
000006e0: 187f d89f 1654 ff3f cc17 89ea d644 edbf
000006f0: d342 1156 4d6b f73f a9fb 9b25 ff32 d33f
00000700: 3a8a 6a9b 16eb e23f d767 e085 4ea9 da3f
00000710: 3482 6472 ebe6 d2bf eb73 965e 2ebd d93f
00000720: 783b 2e3d 7a4e 0e40 cdea 2947 1dc4 d13f
00000730: 7424 b258 75b2 0bc0 9634 e3b6 5f71 0d40
00000740: eaca 9083 db6e d13f d01e 0eaf a10e f8bf
00000750: cda6 fecc 0337 a73f b11f 177a 28fe f6bf
00000760: a6b4 1f73 730f f63f c091 6845 3d69 f4bf
00000770: cfb4 d218 a05b e33f 5529 81be 88c1 dd3f
0.7677512422663918 2.0441125533015367 1.0341703998874594 0.9418058629320857 0.7183821413296229 -0.9649573947149153 0.40391736751438045 -1.302156274596128
-1.8567206053689542 0.8674992884570817 -1.0697051259873727 -1.1327267367520624 0.5558033289758187 1.7909819893676617 -0.26725025534765545 0.1369400240367346
0.21125246185935018 -2.6701065774120303 0.2315426741108268 -1.0802189103431552 -0.8871395211969568 0.8816961881264693 -0.11202613399832961 -0.04823375679189867
0.7406831653658703 1.7446919181371294 1.5716261221802033 1.4369643595713406 2.628690932163265 0.7688880780202283 -1.1359756354185129 -0.05864321967308071
0.3975665761060096 -0.15618527946615984 0.28945619943637363 0.5506652628211879 0.8260897353945116 0.3040558294958863 -0.5706917418008141 -1.2316776208785778
1.4820072015230727 0.06739941115961551 0.07039454219948439 2.1021637882314903 1.4228168913446162 0.8900467103117558 0.36747077731674854 -0.6735256956349713
1.645589160069013 0.46947724068163904 -0.6218022411323322 1.0988758200752105 1.3430993395495534 0.6411813557384969 -0.8338251041794134 0.19749703865170112
-0.02740323654167682 -2.481882198181177 -1.0446838745620917 -1.5219349819409425 -1.333534680777689 -4.099063601742206 4.262114540712246 1.022015574052236
-2.556278818433158 2.155402600325829 -1.1289452620720444 -1.5440034905153468 0.005214425469696379 0.1437042420843394 1.2495090458419513 0.5790963522011481
0.7168675899368276 4.396754956912961 -0.7706502847373813 -1.6034214958307564 1.7969097527069622 -0.4792502232377798 -1.0023670463431664 -0.3261304309486515
0.9536019215165878 1.6716448175522978 -2.0820809027959783 0.7461744571151063 -0.5296865559646896 -3.8877216295481247 2.1083134462491624 -1.7405799015248826
-1.2165057798922063 0.1274036799096536 -0.07704165258195525 0.4055950613353025 0.6206202876806827 3.5298816760267826 -0.07609206460621508 -0.896523061161345
0.745633923624922 0.133718031213744 0.36267661887055136 1.5880264479154587 -1.0231619953002393 0.4180093209248082 0.6966657775394322 0.029062947123137693
1.5519474869060212 -0.04453764257778757 -1.242577261571138 -1.7107136910339031 -0.17622510618618328 0.6913879482288554 -0.44091691247531106 -0.3179629770162293
-0.3181173622078418 0.20263499860700457 -0.915996787809147 -0.39827797212205535 0.28670697942256673 -0.41077180483824055 1.0590328859002158 1.2718193463462606
-0.7378628785160141 -0.20340545306302374 1.8396832396518004 0.18501250211183157 -0.17037231560325908 0.11170205329435484 0.5494524422868576 -0.9648145201367568
-0.479669180777224 -0.3428199860326574 0.4390628909842851 -0.5790885140981257 -0.2936003182173023 1.4543242364555167 -2.2727393102953752 -0.8239938630308896
1.1542939864780835 -0.5317216898559091 -0.855408085417337 -0.31240102389989544 0.3357637247796721 1.1866373170912727 -0.2796034534417283 0.34893810432113065
1.8004771437509064 1.9552750630559483 1.9041523212420632 -0.9609551412932494 0.10421916939598905 1.8452365834346511 1.5923285211958575 0.8663589031014932
0.7438108663286882 -2.1515866476629557 -0.9783320379026631 -0.8117742698349271 0.9824369927633199 2.575100543652486 0.712052250989473 -1.1991502643007104
1.1889866168115653 0.03556644905997324 -1.5659409157036455 -1.4631217942105217 -0.4792114280983308 0.3842770756685849 1.1373967982348465 -0.5605069252067348
-0.7077683253615328 -3.1871924630959643 1.6358941986120217 -0.05889556292269169 -0.006791921614994779 1.1473981730043923 -0.30513918274239926 -0.5594404555280931
-0.09176284200989562 0.33531660548242237 1.0725645864899367 -0.21260260062216238 1.730249002917535 -2.3437670596327207 -4.4318899749089935 0.6369924197625694
-0.907480990207216 -2.0651595324436562 0.2055592995504973 0.28826675879404207 0.608945263528044 0.4132094752491729 -0.4346511984142349 0.20212192685338698
-1.4606713877049258 -2.865618453793704 0.273286084872523 0.2878274130064784 -0.48412543100325567 -0.47761345257764676 -0.769528100520637 -0.23116374057744155
-1.1748035976729214 -1.8762405919703191 0.9309423787377007 -1.9570589642038043 -1.6551251649953214 2.627867375743169 -0.11110824687832715 -1.3091237452004176
0.8482175901242957 1.7748998165988756 0.8017105073607629 -0.8231705721851584 2.332981195813659 -0.21997014320379962 1.0401032698754464 -0.5947114694244252
-0.6955682835073307 3.2811389713431023 -1.5547497490470927 1.3393723831342124 1.9580293888065565 -0.9146532612583029 1.46369680042351 0.2999875895765692
0.5911973033401587 0.41658366273770525 -0.29534422084001055 0.4021716998775548 3.7883190898641566 0.2775948710401906 -3.4621378831257577 3.6803583419883337
0.27239120338633305 -1.503572162446222 0.04534160497071369 -1.4370503205445682 1.378772210791149 -1.2756931983250155 0.6049347386193861 0.4649373875041836

layers.5.kernel.radii f8 [4]
00000000: 0000 0000 0000 0000 abaa aaaa aaaa ea3f
00000010: abaa aaaa aaaa fa3f 0000 0000 0000 0440
0.0 0.8333333333333334 1.6666666666666667 2.5
